…
# alg: fedavg , epochs: 100, shard_per_user: 5, limit_local_output: 0, local_rep_ep: 3 , local_only: 1, is_concept_shift: 1, dataset: cifar10, level_n_system: 0.6 , level_n_lowerb:0.4  

Files already downloaded and verified
Files already downloaded and verified
   Client 5, noise    level: 0.4000 
   Client 16, noise    level: 0.4000 
   Client 10, noise    level: 0.4000 
   Client 0, noise    level: 0.4000 
   Client 2, noise    level: 0.4000 
   Client 9, noise    level: 0.4000 
   Client 15, noise    level: 0.4000 
   Client 13, noise    level: 0.4000 
   Client 12, noise    level: 0.4000 
   Client 1, noise    level: 0.4000 
   Client 18, noise    level: 0.4000 
   Client 7, noise    level: 0.4000 
fedavg
CNNCifar(
  (conv1): Conv2d(3, 64, kernel_size=(5, 5), stride=(1, 1))
  (pool): MaxPool2d(kernel_size=2, stride=2, padding=0, dilation=1, ceil_mode=False)
  (conv2): Conv2d(64, 64, kernel_size=(5, 5), stride=(1, 1))
  (fc1): Linear(in_features=1600, out_features=120, bias=True)
  (fc2): Linear(in_features=120, out_features=64, bias=True)
  (fc3): Linear(in_features=64, out_features=10, bias=True)
)
odict_keys(['conv1.weight', 'conv1.bias', 'conv2.weight', 'conv2.bias', 'fc1.weight', 'fc1.bias', 'fc2.weight', 'fc2.bias', 'fc3.weight', 'fc3.bias'])
10
[]
['conv1.weight', 'conv1.bias', 'conv2.weight', 'conv2.bias', 'fc1.weight', 'fc1.bias', 'fc2.weight', 'fc2.bias', 'fc3.weight', 'fc3.bias']
learning rate, batch size: 0.01, 10 

Round   0, Train loss: 1.722, Test loss: 2.117, Test accuracy: 19.03
…
# alg: fedrep , epochs: 100, shard_per_user: 5, limit_local_output: 0, local_rep_ep: 3 , local_only: 0, is_concept_shift: 1, dataset: cifar10, level_n_system: 0.6 , level_n_lowerb:0.4  

Files already downloaded and verified
Files already downloaded and verified
   Client 5, noise    level: 0.4000 
   Client 1, noise    level: 0.4000 
   Client 19, noise    level: 0.4000 
   Client 7, noise    level: 0.4000 
   Client 16, noise    level: 0.4000 
   Client 2, noise    level: 0.4000 
   Client 18, noise    level: 0.4000 
   Client 17, noise    level: 0.4000 
   Client 3, noise    level: 0.4000 
   Client 15, noise    level: 0.4000 
   Client 8, noise    level: 0.4000 
   Client 11, noise    level: 0.4000 
fedrep
CNNCifar(
  (conv1): Conv2d(3, 64, kernel_size=(5, 5), stride=(1, 1))
  (pool): MaxPool2d(kernel_size=2, stride=2, padding=0, dilation=1, ceil_mode=False)
  (conv2): Conv2d(64, 64, kernel_size=(5, 5), stride=(1, 1))
  (fc1): Linear(in_features=1600, out_features=120, bias=True)
  (fc2): Linear(in_features=120, out_features=64, bias=True)
  (fc3): Linear(in_features=64, out_features=10, bias=True)
)
CNNCifar(
  (conv1): Conv2d(3, 64, kernel_size=(5, 5), stride=(1, 1))
  (pool): MaxPool2d(kernel_size=2, stride=2, padding=0, dilation=1, ceil_mode=False)
  (conv2): Conv2d(64, 64, kernel_size=(5, 5), stride=(1, 1))
  (fc1): Linear(in_features=1600, out_features=120, bias=True)
  (fc2): Linear(in_features=120, out_features=64, bias=True)
  (fc3): Linear(in_features=64, out_features=10, bias=True)
)
odict_keys(['conv1.weight', 'conv1.bias', 'conv2.weight', 'conv2.bias', 'fc1.weight', 'fc1.bias', 'fc2.weight', 'fc2.bias', 'fc3.weight', 'fc3.bias'])
10
['fc1.weight', 'fc1.bias', 'fc2.weight', 'fc2.bias', 'conv2.weight', 'conv2.bias', 'conv1.weight', 'conv1.bias']
['conv1.weight', 'conv1.bias', 'conv2.weight', 'conv2.bias', 'fc1.weight', 'fc1.bias', 'fc2.weight', 'fc2.bias', 'fc3.weight', 'fc3.bias']
# Params: 307842 (local), 307192 (global); Percentage 99.79 (307192/307842)
learning rate, batch size: 0.01, 10
CNNCifar(
  (conv1): Conv2d(3, 64, kernel_size=(5, 5), stride=(1, 1))
  (pool): MaxPool2d(kernel_size=2, stride=2, padding=0, dilation=1, ceil_mode=False)
  (conv2): Conv2d(64, 64, kernel_size=(5, 5), stride=(1, 1))
  (fc1): Linear(in_features=1600, out_features=120, bias=True)
  (fc2): Linear(in_features=120, out_features=64, bias=True)
  (fc3): Linear(in_features=64, out_features=10, bias=True)
)
Round   0, Train loss: 1.977, Test loss: 2.295, Test accuracy: 12.32
Round   1, Train loss: 1.696, Test loss: 2.094, Test accuracy: 19.36
Round   2, Train loss: 1.561, Test loss: 1.877, Test accuracy: 27.28
Round   3, Train loss: 1.413, Test loss: 1.737, Test accuracy: 32.96
Round   4, Train loss: 1.477, Test loss: 1.570, Test accuracy: 36.95
Round   5, Train loss: 1.413, Test loss: 1.530, Test accuracy: 39.86
…
# alg: RFL , epochs: 100, shard_per_user: 5, limit_local_output: 0, local_rep_ep: 3 , local_only: 0, is_concept_shift: 1, dataset: cifar10  

Files already downloaded and verified
Files already downloaded and verified
   Client 7, noise    level: 0.4000 
   Client 8, noise    level: 0.4000 
   Client 4, noise    level: 0.4000 
   Client 14, noise    level: 0.4000 
   Client 6, noise    level: 0.4000 
   Client 1, noise    level: 0.4000 
   Client 11, noise    level: 0.4000 
   Client 16, noise    level: 0.4000 
   Client 5, noise    level: 0.4000 
   Client 12, noise    level: 0.4000 
   Client 19, noise    level: 0.4000 
   Client 2, noise    level: 0.4000 
LeNet(
  (conv1): Conv2d(3, 6, kernel_size=(5, 5), stride=(1, 1))
  (conv2): Conv2d(6, 16, kernel_size=(5, 5), stride=(1, 1))
  (batch_norm): BatchNorm2d(16, eps=1e-05, momentum=0.1, affine=True, track_running_stats=True)
  (fc1): Linear(in_features=400, out_features=120, bias=True)
  (fc2): Linear(in_features=120, out_features=84, bias=True)
  (fc3): Linear(in_features=84, out_features=10, bias=True)
)
Round 0 global test acc  14.8000
Round 1 global test acc  16.5100
Round 2 global test acc  20.9100
Round 3 global test acc  21.1300
Round 4 global test acc  20.6700
Round 5 global test acc  27.4800
Round 6 global test acc  24.9500
Round 7 global test acc  29.8700
Round 8 global test acc  27.1600
Round 9 global test acc  30.8700
Round 10 global test acc  27.5300
…
# alg: fedrep , epochs: 100, shard_per_user: 5, limit_local_output: 0, local_rep_ep: 3 , local_only: 0, is_concept_shift: 1, dataset: cifar10  

Files already downloaded and verified
Files already downloaded and verified
   Client 8, noise    level: 0.4000 
   Client 3, noise    level: 0.4000 
   Client 14, noise    level: 0.4000 
   Client 16, noise    level: 0.4000 
   Client 9, noise    level: 0.4000 
   Client 4, noise    level: 0.4000 
   Client 18, noise    level: 0.4000 
   Client 2, noise    level: 0.4000 
   Client 10, noise    level: 0.4000 
   Client 19, noise    level: 0.4000 
   Client 6, noise    level: 0.4000 
   Client 7, noise    level: 0.4000 
CNNCifar(
  (conv1): Conv2d(3, 64, kernel_size=(5, 5), stride=(1, 1))
  (pool): MaxPool2d(kernel_size=2, stride=2, padding=0, dilation=1, ceil_mode=False)
  (conv2): Conv2d(64, 64, kernel_size=(5, 5), stride=(1, 1))
  (fc1): Linear(in_features=1600, out_features=120, bias=True)
  (fc2): Linear(in_features=120, out_features=64, bias=True)
  (fc3): Linear(in_features=64, out_features=10, bias=True)
)
odict_keys(['conv1.weight', 'conv1.bias', 'conv2.weight', 'conv2.bias', 'fc1.weight', 'fc1.bias', 'fc2.weight', 'fc2.bias', 'fc3.weight', 'fc3.bias'])
10
['fc1.weight', 'fc1.bias', 'fc2.weight', 'fc2.bias', 'conv2.weight', 'conv2.bias', 'conv1.weight', 'conv1.bias']
['conv1.weight', 'conv1.bias', 'conv2.weight', 'conv2.bias', 'fc1.weight', 'fc1.bias', 'fc2.weight', 'fc2.bias', 'fc3.weight', 'fc3.bias']
# Params: 307842 (local), 307192 (global); Percentage 99.79 (307192/307842)
learning rate, batch size: 0.01, 10
CNNCifar(
  (conv1): Conv2d(3, 64, kernel_size=(5, 5), stride=(1, 1))
  (pool): MaxPool2d(kernel_size=2, stride=2, padding=0, dilation=1, ceil_mode=False)
  (conv2): Conv2d(64, 64, kernel_size=(5, 5), stride=(1, 1))
  (fc1): Linear(in_features=1600, out_features=120, bias=True)
  (fc2): Linear(in_features=120, out_features=64, bias=True)
  (fc3): Linear(in_features=64, out_features=10, bias=True)
)
Round   0, Train loss: 2.007, Test loss: 2.221, Test accuracy: 11.55
Round   1, Train loss: 1.682, Test loss: 2.065, Test accuracy: 19.93
Round   2, Train loss: 1.600, Test loss: 1.816, Test accuracy: 28.67
Round   3, Train loss: 1.477, Test loss: 1.689, Test accuracy: 32.48
Round   4, Train loss: 1.450, Test loss: 1.524, Test accuracy: 36.45
Round   5, Train loss: 1.399, Test loss: 1.442, Test accuracy: 39.50
…
