nohup: ignoring input
%%%%%%%%%%%%%%%%%%%%%%%%%%%%%%%%%%%%%%%%%%%%%%%%%%%%%%%%%%%%%%%%%%%%%%%%%%%%%%%%%% 

%%%%%%%%%%%%%%%%%%%%%%%%%%%%%%%%%%  fedavg  local_only:1   %%%%%%%%%%%%%%%%%%%%%%%%%%%%%%%%%%%%%%%%%% 

# alg: fedavg , epochs: 100, shard_per_user: 10, limit_local_output: 0, local_rep_ep: 3 , local_only: 1, is_concept_shift: 0, dataset: cifar10, level_n_system: 0.0 , level_n_lowerb:0.0  

Files already downloaded and verified
Files already downloaded and verified
fedavg
CNNCifar(
  (conv1): Conv2d(3, 64, kernel_size=(5, 5), stride=(1, 1))
  (pool): MaxPool2d(kernel_size=2, stride=2, padding=0, dilation=1, ceil_mode=False)
  (conv2): Conv2d(64, 64, kernel_size=(5, 5), stride=(1, 1))
  (fc1): Linear(in_features=1600, out_features=120, bias=True)
  (fc2): Linear(in_features=120, out_features=64, bias=True)
  (fc3): Linear(in_features=64, out_features=10, bias=True)
)
odict_keys(['conv1.weight', 'conv1.bias', 'conv2.weight', 'conv2.bias', 'fc1.weight', 'fc1.bias', 'fc2.weight', 'fc2.bias', 'fc3.weight', 'fc3.bias'])
10
[]
['conv1.weight', 'conv1.bias', 'conv2.weight', 'conv2.bias', 'fc1.weight', 'fc1.bias', 'fc2.weight', 'fc2.bias', 'fc3.weight', 'fc3.bias']
learning rate, batch size: 0.01, 10 

Final Round, Train loss: 0.152, Test loss: 2.827, Test accuracy: 55.94
…
Consider using one of the following signatures instead:
	add_(Tensor other, *, Number alpha) (Triggered internally at ../torch/csrc/utils/python_arg_parser.cpp:1630.)
  d_p.add_(weight_decay, p.data)

%%%%%%%%%%%%%%%%%%%%%%%%%%%%%%%%%%%%%%%%%%%%%%%%%%%%%%%%%%%%%%%%%%%%%%%%%%%%%%%%%% 

%%%%%%%%%%%%%%%%%%%%%%%%%%%%%%%%%%FedPAC%%%%%%%%%%%%%%%%%%%%%%%%%%%%%%%%%%%%%%%%%% 

# alg: fedrep , epochs: 100, shard_per_user: 10, limit_local_output: 0, local_rep_ep: 3 , local_only: 0, is_concept_shift: 0, dataset: cifar10  

Files already downloaded and verified
Files already downloaded and verified
fedrep
CNNCifar(
  (conv1): Conv2d(3, 64, kernel_size=(5, 5), stride=(1, 1))
  (pool): MaxPool2d(kernel_size=2, stride=2, padding=0, dilation=1, ceil_mode=False)
  (conv2): Conv2d(64, 64, kernel_size=(5, 5), stride=(1, 1))
  (fc1): Linear(in_features=1600, out_features=120, bias=True)
  (fc2): Linear(in_features=120, out_features=64, bias=True)
  (fc3): Linear(in_features=64, out_features=10, bias=True)
)
odict_keys(['conv1.weight', 'conv1.bias', 'conv2.weight', 'conv2.bias', 'fc1.weight', 'fc1.bias', 'fc2.weight', 'fc2.bias', 'fc3.weight', 'fc3.bias'])
10
['fc1.weight', 'fc1.bias', 'fc2.weight', 'fc2.bias', 'conv2.weight', 'conv2.bias', 'conv1.weight', 'conv1.bias']
['conv1.weight', 'conv1.bias', 'conv2.weight', 'conv2.bias', 'fc1.weight', 'fc1.bias', 'fc2.weight', 'fc2.bias', 'fc3.weight', 'fc3.bias']
# Params: 307842 (local), 307192 (global); Percentage 99.79 (307192/307842)
learning rate, batch size: 0.01, 10
CNNCifar(
  (conv1): Conv2d(3, 64, kernel_size=(5, 5), stride=(1, 1))
  (pool): MaxPool2d(kernel_size=2, stride=2, padding=0, dilation=1, ceil_mode=False)
  (conv2): Conv2d(64, 64, kernel_size=(5, 5), stride=(1, 1))
  (fc1): Linear(in_features=1600, out_features=120, bias=True)
  (fc2): Linear(in_features=120, out_features=64, bias=True)
  (fc3): Linear(in_features=64, out_features=10, bias=True)
)
Round   0, Train loss: 1.365, Test loss: 1.941, Test accuracy: 28.70
Round   1, Train loss: 0.834, Test loss: 2.178, Test accuracy: 36.41
Round   2, Train loss: 0.875, Test loss: 1.423, Test accuracy: 46.91
Round   3, Train loss: 0.740, Test loss: 1.124, Test accuracy: 57.74
Round   4, Train loss: 0.675, Test loss: 1.021, Test accuracy: 58.13
Round   5, Train loss: 0.655, Test loss: 0.989, Test accuracy: 62.84
…
k the release note link for additional information.
Deprecated in NumPy 1.20; for more details and guidance: https://numpy.org/devdocs/release/1.20.0-notes.html#deprecations
  from numpy import long
%%%%%%%%%%%%%%%%%%%%%%%%%%%%%%%%%%%%%%%%%%%%%%%%%%%%%%%%%%%%%%%%%%%%%%%%%%%%%%%%%% 

%%%%%%%%%%%%%%%%%%%%%%%%%%%%%%%%%%RFL%%%%%%%%%%%%%%%%%%%%%%%%%%%%%%%%%%%%%%%%%% 

# alg: RFL , epochs: 100, shard_per_user: 10, limit_local_output: 0, local_rep_ep: 3 , local_only: 0, is_concept_shift: 0, dataset: cifar10  

Files already downloaded and verified
Files already downloaded and verified
LeNet(
  (conv1): Conv2d(3, 6, kernel_size=(5, 5), stride=(1, 1))
  (conv2): Conv2d(6, 16, kernel_size=(5, 5), stride=(1, 1))
  (batch_norm): BatchNorm2d(16, eps=1e-05, momentum=0.1, affine=True, track_running_stats=True)
  (fc1): Linear(in_features=400, out_features=120, bias=True)
  (fc2): Linear(in_features=120, out_features=84, bias=True)
  (fc3): Linear(in_features=84, out_features=10, bias=True)
)
Round 0 global test acc  18.9100
Round 1 global test acc  20.5900
Round 2 global test acc  17.1100
Round 3 global test acc  24.9600
Round 4 global test acc  21.5200
Round 5 global test acc  18.6800
Round 6 global test acc  26.3400
Round 7 global test acc  25.5300
Round 8 global test acc  21.9000
Round 9 global test acc  27.0100
Round 10 global test acc  26.5500
…
Round 94 global test acc  19.2400
Round 95 global test acc  17.8400
Round 96 global test acc  17.8600
Round 97 global test acc  16.9300
Round 98 global test acc  16.0000
Round 99 global test acc  15.2200
%%%%%%%%%%%%%%%%%%%%%%%%%%%%%%%%%%%%%%%%%%%%%%%%%%%%%%%%%%%%%%%%%%%%%%%%%%%%%%%%%% 

%%%%%%%%%%%%%%%%%%%%%%%%%%%%%%%%%%FedPAC%%%%%%%%%%%%%%%%%%%%%%%%%%%%%%%%%%%%%%%%%% 

# alg: fedrep , epochs: 100, shard_per_user: 10, limit_local_output: 0, local_rep_ep: 3 , local_only: 0, is_concept_shift: 0, dataset: cifar10  

Files already downloaded and verified
Files already downloaded and verified
fedrep
CNNCifar(
  (conv1): Conv2d(3, 64, kernel_size=(5, 5), stride=(1, 1))
  (pool): MaxPool2d(kernel_size=2, stride=2, padding=0, dilation=1, ceil_mode=False)
  (conv2): Conv2d(64, 64, kernel_size=(5, 5), stride=(1, 1))
  (fc1): Linear(in_features=1600, out_features=120, bias=True)
  (fc2): Linear(in_features=120, out_features=64, bias=True)
  (fc3): Linear(in_features=64, out_features=10, bias=True)
)
odict_keys(['conv1.weight', 'conv1.bias', 'conv2.weight', 'conv2.bias', 'fc1.weight', 'fc1.bias', 'fc2.weight', 'fc2.bias', 'fc3.weight', 'fc3.bias'])
10
['fc1.weight', 'fc1.bias', 'fc2.weight', 'fc2.bias', 'conv2.weight', 'conv2.bias', 'conv1.weight', 'conv1.bias']
['conv1.weight', 'conv1.bias', 'conv2.weight', 'conv2.bias', 'fc1.weight', 'fc1.bias', 'fc2.weight', 'fc2.bias', 'fc3.weight', 'fc3.bias']
# Params: 307842 (local), 307192 (global); Percentage 99.79 (307192/307842)
learning rate, batch size: 0.01, 10
CNNCifar(
  (conv1): Conv2d(3, 64, kernel_size=(5, 5), stride=(1, 1))
  (pool): MaxPool2d(kernel_size=2, stride=2, padding=0, dilation=1, ceil_mode=False)
  (conv2): Conv2d(64, 64, kernel_size=(5, 5), stride=(1, 1))
  (fc1): Linear(in_features=1600, out_features=120, bias=True)
  (fc2): Linear(in_features=120, out_features=64, bias=True)
  (fc3): Linear(in_features=64, out_features=10, bias=True)
)
Final Round, Train loss: 0.420, Test loss: 0.716, Test accuracy: 76.79
Average accuracy final 10 rounds: … %%%%%%%%%%%%%%%%%%%%%%%%%%%%%%%%%%%%%%%%%%%%%%%%%%%%%%%%%%%%%%%%%%%%%%%%%%%%%%%%%% 

%%%%%%%%%%%%%%%%%%%%%%%%%%%%%%%%%%FedPAC_PSL%%%%%%%%%%%%%%%%%%%%%%%%%%%%%%%%%%%%%%%%%% 

# alg: fedrep , epochs: 100, shard_per_user: 10, limit_local_output: 0, local_rep_ep: 3 , local_only: 0, is_concept_shift: 0, dataset: cifar10,  filter_alg: loss_psl, level_n_system: 0.0 , level_n_lowerb:0.0  

Files already downloaded and verified
Files already downloaded and verified
fedrep
CNNCifar(
  (conv1): Conv2d(3, 64, kernel_size=(5, 5), stride=(1, 1))
  (pool): MaxPool2d(kernel_size=2, stride=2, padding=0, dilation=1, ceil_mode=False)
  (conv2): Conv2d(64, 64, kernel_size=(5, 5), stride=(1, 1))
  (fc1): Linear(in_features=1600, out_features=120, bias=True)
  (fc2): Linear(in_features=120, out_features=64, bias=True)
  (fc3): Linear(in_features=64, out_features=10, bias=True)
)
odict_keys(['conv1.weight', 'conv1.bias', 'conv2.weight', 'conv2.bias', 'fc1.weight', 'fc1.bias', 'fc2.weight', 'fc2.bias', 'fc3.weight', 'fc3.bias'])
10
['fc1.weight', 'fc1.bias', 'fc2.weight', 'fc2.bias', 'conv2.weight', 'conv2.bias', 'conv1.weight', 'conv1.bias']
['conv1.weight', 'conv1.bias', 'conv2.weight', 'conv2.bias', 'fc1.weight', 'fc1.bias', 'fc2.weight', 'fc2.bias', 'fc3.weight', 'fc3.bias']
# Params: 307842 (local), 307192 (global); Percentage 99.79 (307192/307842)
learning rate, batch size: 0.01, 10
CNNCifar(
  (conv1): Conv2d(3, 64, kernel_size=(5, 5), stride=(1, 1))
  (pool): MaxPool2d(kernel_size=2, stride=2, padding=0, dilation=1, ceil_mode=False)
  (conv2): Conv2d(64, 64, kernel_size=(5, 5), stride=(1, 1))
  (fc1): Linear(in_features=1600, out_features=120, bias=True)
  (fc2): Linear(in_features=120, out_features=64, bias=True)
  (fc3): Linear(in_features=64, out_features=10, bias=True)
)
Round   0, Train loss: 2.200, Test loss: 1.896, Test accuracy: 33.79
Round   1, Train loss: 1.843, Test loss: 1.644, Test accuracy: 41.52
Round   2, Train loss: 1.654, Test loss: 1.520, Test accuracy: 46.45
Round   3, Train loss: 1.566, Test loss: 1.441, Test accuracy: 49.94
Round   4, Train loss: 1.491, Test loss: 1.361, Test accuracy: 53.48
Round   5, Train loss: 1.426, Test loss: 1.283, Test accuracy: 55.46
…
