…
# alg: fedavg , epochs: 100, shard_per_user: 5, limit_local_output: 0, local_rep_ep: 3 , local_only: 1, is_concept_shift: 1, dataset: cifar10, level_n_system: 0.6 , level_n_lowerb:0.4  

Files already downloaded and verified
Files already downloaded and verified
   Client 5, noise    level: 0.4000 
   Client 12, noise    level: 0.4000 
   Client 7, noise    level: 0.4000 
   Client 11, noise    level: 0.4000 
   Client 13, noise    level: 0.4000 
   Client 8, noise    level: 0.4000 
   Client 15, noise    level: 0.4000 
   Client 18, noise    level: 0.4000 
   Client 6, noise    level: 0.4000 
   Client 19, noise    level: 0.4000 
   Client 10, noise    level: 0.4000 
   Client 0, noise    level: 0.4000 
fedavg
CNNCifar(
  (conv1): Conv2d(3, 64, kernel_size=(5, 5), stride=(1, 1))
  (pool): MaxPool2d(kernel_size=2, stride=2, padding=0, dilation=1, ceil_mode=False)
  (conv2): Conv2d(64, 64, kernel_size=(5, 5), stride=(1, 1))
  (fc1): Linear(in_features=1600, out_features=120, bias=True)
  (fc2): Linear(in_features=120, out_features=64, bias=True)
  (fc3): Linear(in_features=64, out_features=10, bias=True)
)
odict_keys(['conv1.weight', 'conv1.bias', 'conv2.weight', 'conv2.bias', 'fc1.weight', 'fc1.bias', 'fc2.weight', 'fc2.bias', 'fc3.weight', 'fc3.bias'])
10
[]
['conv1.weight', 'conv1.bias', 'conv2.weight', 'conv2.bias', 'fc1.weight', 'fc1.bias', 'fc2.weight', 'fc2.bias', 'fc3.weight', 'fc3.bias']
learning rate, batch size: 0.01, 10 

Round   0, Train loss: 1.697, Test loss: 2.184, Test accuracy: 18.57
…
# alg: fedrep , epochs: 100, shard_per_user: 5, limit_local_output: 0, local_rep_ep: 3 , local_only: 0, is_concept_shift: 1, dataset: cifar10, level_n_system: 0.6 , level_n_lowerb:0.4  

Files already downloaded and verified
Files already downloaded and verified
   Client 10, noise    level: 0.4000 
   Client 7, noise    level: 0.4000 
   Client 16, noise    level: 0.4000 
   Client 19, noise    level: 0.4000 
   Client 11, noise    level: 0.4000 
   Client 0, noise    level: 0.4000 
   Client 15, noise    level: 0.4000 
   Client 4, noise    level: 0.4000 
   Client 8, noise    level: 0.4000 
   Client 2, noise    level: 0.4000 
   Client 3, noise    level: 0.4000 
   Client 5, noise    level: 0.4000 
fedrep
CNNCifar(
  (conv1): Conv2d(3, 64, kernel_size=(5, 5), stride=(1, 1))
  (pool): MaxPool2d(kernel_size=2, stride=2, padding=0, dilation=1, ceil_mode=False)
  (conv2): Conv2d(64, 64, kernel_size=(5, 5), stride=(1, 1))
  (fc1): Linear(in_features=1600, out_features=120, bias=True)
  (fc2): Linear(in_features=120, out_features=64, bias=True)
  (fc3): Linear(in_features=64, out_features=10, bias=True)
)
CNNCifar(
  (conv1): Conv2d(3, 64, kernel_size=(5, 5), stride=(1, 1))
  (pool): MaxPool2d(kernel_size=2, stride=2, padding=0, dilation=1, ceil_mode=False)
  (conv2): Conv2d(64, 64, kernel_size=(5, 5), stride=(1, 1))
  (fc1): Linear(in_features=1600, out_features=120, bias=True)
  (fc2): Linear(in_features=120, out_features=64, bias=True)
  (fc3): Linear(in_features=64, out_features=10, bias=True)
)
odict_keys(['conv1.weight', 'conv1.bias', 'conv2.weight', 'conv2.bias', 'fc1.weight', 'fc1.bias', 'fc2.weight', 'fc2.bias', 'fc3.weight', 'fc3.bias'])
10
['fc1.weight', 'fc1.bias', 'fc2.weight', 'fc2.bias', 'conv2.weight', 'conv2.bias', 'conv1.weight', 'conv1.bias']
['conv1.weight', 'conv1.bias', 'conv2.weight', 'conv2.bias', 'fc1.weight', 'fc1.bias', 'fc2.weight', 'fc2.bias', 'fc3.weight', 'fc3.bias']
# Params: 307842 (local), 307192 (global); Percentage 99.79 (307192/307842)
learning rate, batch size: 0.01, 10
CNNCifar(
  (conv1): Conv2d(3, 64, kernel_size=(5, 5), stride=(1, 1))
  (pool): MaxPool2d(kernel_size=2, stride=2, padding=0, dilation=1, ceil_mode=False)
  (conv2): Conv2d(64, 64, kernel_size=(5, 5), stride=(1, 1))
  (fc1): Linear(in_features=1600, out_features=120, bias=True)
  (fc2): Linear(in_features=120, out_features=64, bias=True)
  (fc3): Linear(in_features=64, out_features=10, bias=True)
)
Round   0, Train loss: 1.979, Test loss: 2.289, Test accuracy: 12.11
Round   1, Train loss: 1.652, Test loss: 2.193, Test accuracy: 22.47
Round   2, Train loss: 1.548, Test loss: 1.817, Test accuracy: 30.22
Round   3, Train loss: 1.407, Test loss: 1.687, Test accuracy: 34.07
Round   4, Train loss: 1.401, Test loss: 1.520, Test accuracy: 40.30
Round   5, Train loss: 1.296, Test loss: 1.469, Test accuracy: 43.13
…
# alg: RFL , epochs: 100, shard_per_user: 5, limit_local_output: 0, local_rep_ep: 3 , local_only: 0, is_concept_shift: 1, dataset: cifar10  

Files already downloaded and verified
Files already downloaded and verified
   Client 15, noise    level: 0.4000 
   Client 13, noise    level: 0.4000 
   Client 18, noise    level: 0.4000 
   Client 11, noise    level: 0.4000 
   Client 6, noise    level: 0.4000 
   Client 0, noise    level: 0.4000 
   Client 9, noise    level: 0.4000 
   Client 8, noise    level: 0.4000 
   Client 14, noise    level: 0.4000 
   Client 7, noise    level: 0.4000 
   Client 10, noise    level: 0.4000 
   Client 1, noise    level: 0.4000 
LeNet(
  (conv1): Conv2d(3, 6, kernel_size=(5, 5), stride=(1, 1))
  (conv2): Conv2d(6, 16, kernel_size=(5, 5), stride=(1, 1))
  (batch_norm): BatchNorm2d(16, eps=1e-05, momentum=0.1, affine=True, track_running_stats=True)
  (fc1): Linear(in_features=400, out_features=120, bias=True)
  (fc2): Linear(in_features=120, out_features=84, bias=True)
  (fc3): Linear(in_features=84, out_features=10, bias=True)
)
Round 0 global test acc  16.3000
Round 1 global test acc  22.3100
Round 2 global test acc  25.0900
Round 3 global test acc  24.0400
Round 4 global test acc  26.3000
Round 5 global test acc  22.3900
Round 6 global test acc  22.5500
Round 7 global test acc  36.0100
Round 8 global test acc  30.2900
Round 9 global test acc  28.6700
Round 10 global test acc  36.1300
…
# alg: fedrep , epochs: 100, shard_per_user: 5, limit_local_output: 0, local_rep_ep: 3 , local_only: 0, is_concept_shift: 1, dataset: cifar10  

Files already downloaded and verified
Files already downloaded and verified
   Client 18, noise    level: 0.4000 
   Client 5, noise    level: 0.4000 
   Client 7, noise    level: 0.4000 
   Client 6, noise    level: 0.4000 
   Client 9, noise    level: 0.4000 
   Client 17, noise    level: 0.4000 
   Client 8, noise    level: 0.4000 
   Client 0, noise    level: 0.4000 
   Client 12, noise    level: 0.4000 
   Client 10, noise    level: 0.4000 
   Client 19, noise    level: 0.4000 
   Client 14, noise    level: 0.4000 
CNNCifar(
  (conv1): Conv2d(3, 64, kernel_size=(5, 5), stride=(1, 1))
  (pool): MaxPool2d(kernel_size=2, stride=2, padding=0, dilation=1, ceil_mode=False)
  (conv2): Conv2d(64, 64, kernel_size=(5, 5), stride=(1, 1))
  (fc1): Linear(in_features=1600, out_features=120, bias=True)
  (fc2): Linear(in_features=120, out_features=64, bias=True)
  (fc3): Linear(in_features=64, out_features=10, bias=True)
)
odict_keys(['conv1.weight', 'conv1.bias', 'conv2.weight', 'conv2.bias', 'fc1.weight', 'fc1.bias', 'fc2.weight', 'fc2.bias', 'fc3.weight', 'fc3.bias'])
10
['fc1.weight', 'fc1.bias', 'fc2.weight', 'fc2.bias', 'conv2.weight', 'conv2.bias', 'conv1.weight', 'conv1.bias']
['conv1.weight', 'conv1.bias', 'conv2.weight', 'conv2.bias', 'fc1.weight', 'fc1.bias', 'fc2.weight', 'fc2.bias', 'fc3.weight', 'fc3.bias']
# Params: 307842 (local), 307192 (global); Percentage 99.79 (307192/307842)
learning rate, batch size: 0.01, 10
CNNCifar(
  (conv1): Conv2d(3, 64, kernel_size=(5, 5), stride=(1, 1))
  (pool): MaxPool2d(kernel_size=2, stride=2, padding=0, dilation=1, ceil_mode=False)
  (conv2): Conv2d(64, 64, kernel_size=(5, 5), stride=(1, 1))
  (fc1): Linear(in_features=1600, out_features=120, bias=True)
  (fc2): Linear(in_features=120, out_features=64, bias=True)
  (fc3): Linear(in_features=64, out_features=10, bias=True)
)
Round   0, Train loss: 1.970, Test loss: 2.265, Test accuracy: 12.14
Round   1, Train loss: 1.685, Test loss: 2.271, Test accuracy: 19.64
Round   2, Train loss: 1.570, Test loss: 1.769, Test accuracy: 26.90
Round   3, Train loss: 1.453, Test loss: 1.682, Test accuracy: 29.48
Round   4, Train loss: 1.405, Test loss: 1.476, Test accuracy: 36.10
Round   5, Train loss: 1.367, Test loss: 1.484, Test accuracy: 40.59
…
