…
# alg: fedavg , epochs: 100, shard_per_user: 4, limit_local_output: 0, local_rep_ep: 3 , local_only: 1, is_concept_shift: 0, dataset: cifar10, level_n_system: 0.6 , level_n_lowerb:0.4  

Files already downloaded and verified
Files already downloaded and verified
   Client 4, noise    level: 0.4000 
   Client 0, noise    level: 0.4000 
   Client 16, noise    level: 0.4000 
   Client 9, noise    level: 0.4000 
   Client 13, noise    level: 0.4000 
   Client 11, noise    level: 0.4000 
   Client 12, noise    level: 0.4000 
   Client 3, noise    level: 0.4000 
   Client 14, noise    level: 0.4000 
   Client 1, noise    level: 0.4000 
   Client 19, noise    level: 0.4000 
   Client 5, noise    level: 0.4000 
fedavg
CNNCifar(
  (conv1): Conv2d(3, 64, kernel_size=(5, 5), stride=(1, 1))
  (pool): MaxPool2d(kernel_size=2, stride=2, padding=0, dilation=1, ceil_mode=False)
  (conv2): Conv2d(64, 64, kernel_size=(5, 5), stride=(1, 1))
  (fc1): Linear(in_features=1600, out_features=120, bias=True)
  (fc2): Linear(in_features=120, out_features=64, bias=True)
  (fc3): Linear(in_features=64, out_features=10, bias=True)
)
odict_keys(['conv1.weight', 'conv1.bias', 'conv2.weight', 'conv2.bias', 'fc1.weight', 'fc1.bias', 'fc2.weight', 'fc2.bias', 'fc3.weight', 'fc3.bias'])
10
[]
['conv1.weight', 'conv1.bias', 'conv2.weight', 'conv2.bias', 'fc1.weight', 'fc1.bias', 'fc2.weight', 'fc2.bias', 'fc3.weight', 'fc3.bias']
learning rate, batch size: 0.01, 10 

Round   0, Train loss: 1.536, Test loss: 2.112, Test accuracy: 21.31
…
# alg: fedavg , epochs: 100, shard_per_user: 4, limit_local_output: 0, local_rep_ep: 3 , local_only: 0, is_concept_shift: 0, dataset: cifar10, level_n_system: 0.6 , level_n_lowerb:0.4  

Files already downloaded and verified
Files already downloaded and verified
   Client 8, noise    level: 0.4000 
   Client 12, noise    level: 0.4000 
   Client 7, noise    level: 0.4000 
   Client 11, noise    level: 0.4000 
   Client 1, noise    level: 0.4000 
   Client 3, noise    level: 0.4000 
   Client 16, noise    level: 0.4000 
   Client 15, noise    level: 0.4000 
   Client 9, noise    level: 0.4000 
   Client 5, noise    level: 0.4000 
   Client 4, noise    level: 0.4000 
   Client 6, noise    level: 0.4000 
fedavg
CNNCifar(
  (conv1): Conv2d(3, 64, kernel_size=(5, 5), stride=(1, 1))
  (pool): MaxPool2d(kernel_size=2, stride=2, padding=0, dilation=1, ceil_mode=False)
  (conv2): Conv2d(64, 64, kernel_size=(5, 5), stride=(1, 1))
  (fc1): Linear(in_features=1600, out_features=120, bias=True)
  (fc2): Linear(in_features=120, out_features=64, bias=True)
  (fc3): Linear(in_features=64, out_features=10, bias=True)
)
CNNCifar(
  (conv1): Conv2d(3, 64, kernel_size=(5, 5), stride=(1, 1))
  (pool): MaxPool2d(kernel_size=2, stride=2, padding=0, dilation=1, ceil_mode=False)
  (conv2): Conv2d(64, 64, kernel_size=(5, 5), stride=(1, 1))
  (fc1): Linear(in_features=1600, out_features=120, bias=True)
  (fc2): Linear(in_features=120, out_features=64, bias=True)
  (fc3): Linear(in_features=64, out_features=10, bias=True)
)
odict_keys(['conv1.weight', 'conv1.bias', 'conv2.weight', 'conv2.bias', 'fc1.weight', 'fc1.bias', 'fc2.weight', 'fc2.bias', 'fc3.weight', 'fc3.bias'])
10
[]
['conv1.weight', 'conv1.bias', 'conv2.weight', 'conv2.bias', 'fc1.weight', 'fc1.bias', 'fc2.weight', 'fc2.bias', 'fc3.weight', 'fc3.bias']
learning rate, batch size: 0.01, 10
CNNCifar(
  (conv1): Conv2d(3, 64, kernel_size=(5, 5), stride=(1, 1))
  (pool): MaxPool2d(kernel_size=2, stride=2, padding=0, dilation=1, ceil_mode=False)
  (conv2): Conv2d(64, 64, kernel_size=(5, 5), stride=(1, 1))
  (fc1): Linear(in_features=1600, out_features=120, bias=True)
  (fc2): Linear(in_features=120, out_features=64, bias=True)
  (fc3): Linear(in_features=64, out_features=10, bias=True)
)
Round   0, Train loss: 1.545, Test loss: 2.082, Test accuracy: 17.89
Round   0, Global train loss: 1.545, Global test loss: 2.331, Global test accuracy: 13.45
Round   1, Train loss: 1.354, Test loss: 1.608, Test accuracy: 35.51
Round   1, Global train loss: 1.354, Global test loss: 2.119, Global test accuracy: 24.86
Round   2, Train loss: 1.342, Test loss: 1.534, Test accuracy: 36.98
…
# alg: RFL , epochs: 100, shard_per_user: 4, limit_local_output: 0, local_rep_ep: 3 , local_only: 0, is_concept_shift: 0, dataset: cifar10  

Files already downloaded and verified
Files already downloaded and verified
   Client 2, noise    level: 0.4000 
   Client 18, noise    level: 0.4000 
   Client 11, noise    level: 0.4000 
   Client 1, noise    level: 0.4000 
   Client 14, noise    level: 0.4000 
   Client 12, noise    level: 0.4000 
   Client 0, noise    level: 0.4000 
   Client 9, noise    level: 0.4000 
   Client 16, noise    level: 0.4000 
   Client 8, noise    level: 0.4000 
   Client 4, noise    level: 0.4000 
   Client 3, noise    level: 0.4000 
LeNet(
  (conv1): Conv2d(3, 6, kernel_size=(5, 5), stride=(1, 1))
  (conv2): Conv2d(6, 16, kernel_size=(5, 5), stride=(1, 1))
  (batch_norm): BatchNorm2d(16, eps=1e-05, momentum=0.1, affine=True, track_running_stats=True)
  (fc1): Linear(in_features=400, out_features=120, bias=True)
  (fc2): Linear(in_features=120, out_features=84, bias=True)
  (fc3): Linear(in_features=84, out_features=10, bias=True)
)
Round 0 global test acc  14.8300
Round 1 global test acc  17.1900
Round 2 global test acc  16.6000
Round 3 global test acc  13.3100
Round 4 global test acc  19.8200
Round 5 global test acc  22.2000
Round 6 global test acc  20.0500
Round 7 global test acc  22.4800
Round 8 global test acc  15.8800
Round 9 global test acc  20.6000
Round 10 global test acc  23.8100
…
# alg: fedrep , epochs: 100, shard_per_user: 4, limit_local_output: 0, local_rep_ep: 3 , local_only: 0, is_concept_shift: 0, dataset: cifar10  

Files already downloaded and verified
Files already downloaded and verified
   Client 4, noise    level: 0.4000 
   Client 10, noise    level: 0.4000 
   Client 9, noise    level: 0.4000 
   Client 14, noise    level: 0.4000 
   Client 6, noise    level: 0.4000 
   Client 18, noise    level: 0.4000 
   Client 15, noise    level: 0.4000 
   Client 13, noise    level: 0.4000 
   Client 2, noise    level: 0.4000 
   Client 12, noise    level: 0.4000 
   Client 5, noise    level: 0.4000 
   Client 19, noise    level: 0.4000 
CNNCifar(
  (conv1): Conv2d(3, 64, kernel_size=(5, 5), stride=(1, 1))
  (pool): MaxPool2d(kernel_size=2, stride=2, padding=0, dilation=1, ceil_mode=False)
  (conv2): Conv2d(64, 64, kernel_size=(5, 5), stride=(1, 1))
  (fc1): Linear(in_features=1600, out_features=120, bias=True)
  (fc2): Linear(in_features=120, out_features=64, bias=True)
  (fc3): Linear(in_features=64, out_features=10, bias=True)
)
odict_keys(['conv1.weight', 'conv1.bias', 'conv2.weight', 'conv2.bias', 'fc1.weight', 'fc1.bias', 'fc2.weight', 'fc2.bias', 'fc3.weight', 'fc3.bias'])
10
['fc1.weight', 'fc1.bias', 'fc2.weight', 'fc2.bias', 'conv2.weight', 'conv2.bias', 'conv1.weight', 'conv1.bias']
['conv1.weight', 'conv1.bias', 'conv2.weight', 'conv2.bias', 'fc1.weight', 'fc1.bias', 'fc2.weight', 'fc2.bias', 'fc3.weight', 'fc3.bias']
# Params: 307842 (local), 307192 (global); Percentage 99.79 (307192/307842)
learning rate, batch size: 0.01, 10
CNNCifar(
  (conv1): Conv2d(3, 64, kernel_size=(5, 5), stride=(1, 1))
  (pool): MaxPool2d(kernel_size=2, stride=2, padding=0, dilation=1, ceil_mode=False)
  (conv2): Conv2d(64, 64, kernel_size=(5, 5), stride=(1, 1))
  (fc1): Linear(in_features=1600, out_features=120, bias=True)
  (fc2): Linear(in_features=120, out_features=64, bias=True)
  (fc3): Linear(in_features=64, out_features=10, bias=True)
)
Round   0, Train loss: 1.888, Test loss: 2.247, Test accuracy: 21.61
Round   1, Train loss: 1.471, Test loss: 1.788, Test accuracy: 33.56
Round   2, Train loss: 1.412, Test loss: 1.706, Test accuracy: 34.86
Round   3, Train loss: 1.425, Test loss: 1.502, Test accuracy: 39.83
Round   4, Train loss: 1.361, Test loss: 1.493, Test accuracy: 40.20
Round   5, Train loss: 1.321, Test loss: 1.461, Test accuracy: 42.41
…
