…
Average global accuracy final 10 rounds: … /home/ChenSM/code/FL_HLS/utils/sampling.py:93: UserWarning: To copy construct from a tensor, it is recommended to use sourceTensor.clone().detach() or sourceTensor.clone().detach().requires_grad_(True), rather than torch.tensor(sourceTensor).
  label = torch.tensor(dataset.targets[i]).item()
%%%%%%%%%%%%%%%%%%%%%%%%%%%%%%%%%%%%%%%%%%%%%%%%%%%%%%%%%%%%%%%%%%%%%%%%%%%%%%%%%% 

%%%%%%%%%%%%%%%%%%%%%%%%%%%%%%%%%%FedPAC_co_teaching%%%%%%%%%%%%%%%%%%%%%%%%%%%%%%%%%%%%%%%%%% 

# alg: fedavg , epochs: 100, shard_per_user: 5, limit_local_output: 0, local_rep_ep: 3 , local_only: 0, is_concept_shift: 0, dataset: mnist, level_n_system: 0.0 , level_n_lowerb:0.4  

fedavg
MLP(
  (layer_input): Linear(in_features=784, out_features=512, bias=True)
  (relu): ReLU()
  (dropout): Dropout(p=0, inplace=False)
  (layer_hidden1): Linear(in_features=512, out_features=256, bias=True)
  (layer_hidden2): Linear(in_features=256, out_features=64, bias=True)
  (layer_out): Linear(in_features=64, out_features=5, bias=True)
  (softmax): Softmax(dim=1)
)
MLP(
  (layer_input): Linear(in_features=784, out_features=512, bias=True)
  (relu): ReLU()
  (dropout): Dropout(p=0, inplace=False)
  (layer_hidden1): Linear(in_features=512, out_features=256, bias=True)
  (layer_hidden2): Linear(in_features=256, out_features=64, bias=True)
  (layer_out): Linear(in_features=64, out_features=5, bias=True)
  (softmax): Softmax(dim=1)
)
odict_keys(['layer_input.weight', 'layer_input.bias', 'layer_hidden1.weight', 'layer_hidden1.bias', 'layer_hidden2.weight', 'layer_hidden2.bias', 'layer_out.weight', 'layer_out.bias'])
8
[]
['layer_input.weight', 'layer_input.bias', 'layer_hidden1.weight', 'layer_hidden1.bias', 'layer_hidden2.weight', 'layer_hidden2.bias', 'layer_out.weight', 'layer_out.bias']
learning rate, batch size: 0.01, 10
MLP(
  (layer_input): Linear(in_features=784, out_features=512, bias=True)
  (relu): ReLU()
  (dropout): Dropout(p=0, inplace=False)
  (layer_hidden1): Linear(in_features=512, out_features=256, bias=True)
  (layer_hidden2): Linear(in_features=256, out_features=64, bias=True)
  (layer_out): Linear(in_features=64, out_features=5, bias=True)
  (softmax): Softmax(dim=1)
)
Traceback (most recent call last):
  File "main_fedpac_co_teaching.py", line 250, in <module>
    local.filter_data(net=net_local.to(args.device), net2=net_local2.to(args.device), concept_matrix_local = concept_matrix[idx])
  File "/home/ChenSM/code/FL_HLS/models/Update.py", line 1587, in filter_data
    data_tmp = torch.from_numpy(np.array([self.dataset.data[data_idx].reshape(3, 32, 32)])).to(torch.float32)
RuntimeError: shape '[3, 32, 32]' is invalid for input of size 784
%%%%%%%%%%%%%%%%%%%%%%%%%%%%%%%%%%%%%%%%%%%%%%%%%%%%%%%%%%%%%%%%%%%%%%%%%%%%%%%%%% 

%%%%%%%%%%%%%%%%%%%%%%%%%%%%%%%%%%FedPAC%%%%%%%%%%%%%%%%%%%%%%%%%%%%%%%%%%%%%%%%%% 

# alg: fedrep , epochs: 100, shard_per_user: 5, limit_local_output: 0, local_rep_ep: 3 , local_only: 0, is_concept_shift: 0, dataset: mnist  

MLP(
  (layer_input): Linear(in_features=784, out_features=512, bias=True)
  (relu): ReLU()
  (dropout): Dropout(p=0, inplace=False)
  (layer_hidden1): Linear(in_features=512, out_features=256, bias=True)
  (layer_hidden2): Linear(in_features=256, out_features=64, bias=True)
  (layer_out): Linear(in_features=64, out_features=5, bias=True)
  (softmax): Softmax(dim=1)
)
odict_keys(['layer_input.weight', 'layer_input.bias', 'layer_hidden1.weight', 'layer_hidden1.bias', 'layer_hidden2.weight', 'layer_hidden2.bias', 'layer_out.weight', 'layer_out.bias'])
8
['layer_input.weight', 'layer_input.bias', 'layer_hidden1.weight', 'layer_hidden1.bias', 'layer_hidden2.weight', 'layer_hidden2.bias']
['layer_input.weight', 'layer_input.bias', 'layer_hidden1.weight', 'layer_hidden1.bias', 'layer_hidden2.weight', 'layer_hidden2.bias', 'layer_out.weight', 'layer_out.bias']
# Params: 550021 (local), 549696 (global); Percentage 99.94 (549696/550021)
learning rate, batch size: 0.01, 10
MLP(
  (layer_input): Linear(in_features=784, out_features=512, bias=True)
  (relu): ReLU()
  (dropout): Dropout(p=0, inplace=False)
  (layer_hidden1): Linear(in_features=512, out_features=256, bias=True)
  (layer_hidden2): Linear(in_features=256, out_features=64, bias=True)
  (layer_out): Linear(in_features=64, out_features=5, bias=True)
  (softmax): Softmax(dim=1)
)
Round   0, Train loss: 1.625, Test loss: 1.589, Test accuracy: 37.40
Round   0, Global train loss: 1.625, Global test loss: 1.589, Global test accuracy: 37.44
Round   1, Train loss: 1.574, Test loss: 1.529, Test accuracy: 81.82
Round   1, Global train loss: 1.574, Global test loss: 1.527, Global test accuracy: 82.24
Round   2, Train loss: 1.436, Test loss: 1.238, Test accuracy: 93.02
…
Average accuracy final 10 rounds: … /home/ChenSM/code/FL_HLS/utils/sampling.py:93: UserWarning: To copy construct from a tensor, it is recommended to use sourceTensor.clone().detach() or sourceTensor.clone().detach().requires_grad_(True), rather than torch.tensor(sourceTensor).
  label = torch.tensor(dataset.targets[i]).item()
%%%%%%%%%%%%%%%%%%%%%%%%%%%%%%%%%%%%%%%%%%%%%%%%%%%%%%%%%%%%%%%%%%%%%%%%%%%%%%%%%% 

%%%%%%%%%%%%%%%%%%%%%%%%%%%%%%%%%%Fedpac_copsl%%%%%%%%%%%%%%%%%%%%%%%%%%%%%%%%%%%%%%%%%% 

# alg: fedrep , epochs: 100, shard_per_user: 5, limit_local_output: 0, local_rep_ep: 3 , local_only: 0, is_concept_shift: 0, dataset: mnist,  filter_alg: loss_psl, level_n_system: 0.0 , level_n_lowerb:0.4  

MLP(
  (layer_input): Linear(in_features=784, out_features=512, bias=True)
  (relu): ReLU()
  (dropout): Dropout(p=0, inplace=False)
  (layer_hidden1): Linear(in_features=512, out_features=256, bias=True)
  (layer_hidden2): Linear(in_features=256, out_features=64, bias=True)
  (layer_out): Linear(in_features=64, out_features=5, bias=True)
  (softmax): Softmax(dim=1)
)
odict_keys(['layer_input.weight', 'layer_input.bias', 'layer_hidden1.weight', 'layer_hidden1.bias', 'layer_hidden2.weight', 'layer_hidden2.bias', 'layer_out.weight', 'layer_out.bias'])
8
['layer_input.weight', 'layer_input.bias', 'layer_hidden1.weight', 'layer_hidden1.bias', 'layer_hidden2.weight', 'layer_hidden2.bias']
['layer_input.weight', 'layer_input.bias', 'layer_hidden1.weight', 'layer_hidden1.bias', 'layer_hidden2.weight', 'layer_hidden2.bias', 'layer_out.weight', 'layer_out.bias']
# Params: 550021 (local), 549696 (global); Percentage 99.94 (549696/550021)
learning rate, batch size: 0.01, 10
MLP(
  (layer_input): Linear(in_features=784, out_features=512, bias=True)
  (relu): ReLU()
  (dropout): Dropout(p=0, inplace=False)
  (layer_hidden1): Linear(in_features=512, out_features=256, bias=True)
  (layer_hidden2): Linear(in_features=256, out_features=64, bias=True)
  (layer_out): Linear(in_features=64, out_features=5, bias=True)
  (softmax): Softmax(dim=1)
)
Round   0, Train loss: 1.619, Test loss: 1.578, Test accuracy: 51.44
Round   0, Global train loss: 1.619, Global test loss: 1.578, Global test accuracy: 51.22
Round   1, Train loss: 1.540, Test loss: 1.436, Test accuracy: 74.48
Round   1, Global train loss: 1.540, Global test loss: 1.435, Global test accuracy: 74.32
Round   2, Train loss: 1.350, Test loss: 1.196, Test accuracy: 81.48
…
Average global accuracy final 10 rounds: … /home/ChenSM/code/FL_HLS/utils/sampling.py:93: UserWarning: To copy construct from a tensor, it is recommended to use sourceTensor.clone().detach() or sourceTensor.clone().detach().requires_grad_(True), rather than torch.tensor(sourceTensor).
  label = torch.tensor(dataset.targets[i]).item()
%%%%%%%%%%%%%%%%%%%%%%%%%%%%%%%%%%%%%%%%%%%%%%%%%%%%%%%%%%%%%%%%%%%%%%%%%%%%%%%%%% 

%%%%%%%%%%%%%%%%%%%%%%%%%%%%%%%%%%FedPAC_co_teaching%%%%%%%%%%%%%%%%%%%%%%%%%%%%%%%%%%%%%%%%%% 

# alg: fedavg , epochs: 100, shard_per_user: 5, limit_local_output: 0, local_rep_ep: 3 , local_only: 0, is_concept_shift: 0, dataset: mnist, level_n_system: 0.2 , level_n_lowerb:0.4  

   Client 9, noise    level: 0.4000 
   Client 1, noise    level: 0.4000 
fedavg
MLP(
  (layer_input): Linear(in_features=784, out_features=512, bias=True)
  (relu): ReLU()
  (dropout): Dropout(p=0, inplace=False)
  (layer_hidden1): Linear(in_features=512, out_features=256, bias=True)
  (layer_hidden2): Linear(in_features=256, out_features=64, bias=True)
  (layer_out): Linear(in_features=64, out_features=5, bias=True)
  (softmax): Softmax(dim=1)
)
MLP(
  (layer_input): Linear(in_features=784, out_features=512, bias=True)
  (relu): ReLU()
  (dropout): Dropout(p=0, inplace=False)
  (layer_hidden1): Linear(in_features=512, out_features=256, bias=True)
  (layer_hidden2): Linear(in_features=256, out_features=64, bias=True)
  (layer_out): Linear(in_features=64, out_features=5, bias=True)
  (softmax): Softmax(dim=1)
)
odict_keys(['layer_input.weight', 'layer_input.bias', 'layer_hidden1.weight', 'layer_hidden1.bias', 'layer_hidden2.weight', 'layer_hidden2.bias', 'layer_out.weight', 'layer_out.bias'])
8
[]
['layer_input.weight', 'layer_input.bias', 'layer_hidden1.weight', 'layer_hidden1.bias', 'layer_hidden2.weight', 'layer_hidden2.bias', 'layer_out.weight', 'layer_out.bias']
learning rate, batch size: 0.01, 10
MLP(
  (layer_input): Linear(in_features=784, out_features=512, bias=True)
  (relu): ReLU()
  (dropout): Dropout(p=0, inplace=False)
  (layer_hidden1): Linear(in_features=512, out_features=256, bias=True)
  (layer_hidden2): Linear(in_features=256, out_features=64, bias=True)
  (layer_out): Linear(in_features=64, out_features=5, bias=True)
  (softmax): Softmax(dim=1)
)
Traceback (most recent call last):
  File "main_fedpac_co_teaching.py", line 250, in <module>
    local.filter_data(net=net_local.to(args.device), net2=net_local2.to(args.device), concept_matrix_local = concept_matrix[idx])
  File "/home/ChenSM/code/FL_HLS/models/Update.py", line 1587, in filter_data
    data_tmp = torch.from_numpy(np.array([self.dataset.data[data_idx].reshape(3, 32, 32)])).to(torch.float32)
…
