nohup: ignoring input
%%%%%%%%%%%%%%%%%%%%%%%%%%%%%%%%%%%%%%%%%%%%%%%%%%%%%%%%%%%%%%%%%%%%%%%%%%%%%%%%%% 

%%%%%%%%%%%%%%%%%%%%%%%%%%%%%%%%%%  fedavg  local_only:1   %%%%%%%%%%%%%%%%%%%%%%%%%%%%%%%%%%%%%%%%%% 

# alg: fedavg , epochs: 100, shard_per_user: 10, limit_local_output: 0, local_rep_ep: 3 , local_only: 1, is_concept_shift: 0, dataset: cifar10, level_n_system: 0.0 , level_n_lowerb:0.2  

Files already downloaded and verified
Files already downloaded and verified
fedavg
CNNCifar(
  (conv1): Conv2d(3, 64, kernel_size=(5, 5), stride=(1, 1))
  (pool): MaxPool2d(kernel_size=2, stride=2, padding=0, dilation=1, ceil_mode=False)
  (conv2): Conv2d(64, 64, kernel_size=(5, 5), stride=(1, 1))
  (fc1): Linear(in_features=1600, out_features=120, bias=True)
  (fc2): Linear(in_features=120, out_features=64, bias=True)
  (fc3): Linear(in_features=64, out_features=10, bias=True)
)
odict_keys(['conv1.weight', 'conv1.bias', 'conv2.weight', 'conv2.bias', 'fc1.weight', 'fc1.bias', 'fc2.weight', 'fc2.bias', 'fc3.weight', 'fc3.bias'])
10
[]
['conv1.weight', 'conv1.bias', 'conv2.weight', 'conv2.bias', 'fc1.weight', 'fc1.bias', 'fc2.weight', 'fc2.bias', 'fc3.weight', 'fc3.bias']
learning rate, batch size: 0.01, 10 

Final Round, Train loss: 0.153, Test loss: 4.214, Test accuracy: 40.87
…
learning rate, batch size: 0.01, 10 

Final Round, Train loss: 0.316, Test loss: 1.658, Test accuracy: 60.79
Average accuracy final 10 rounds: … %%%%%%%%%%%%%%%%%%%%%%%%%%%%%%%%%%%%%%%%%%%%%%%%%%%%%%%%%%%%%%%%%%%%%%%%%%%%%%%%%% 

%%%%%%%%%%%%%%%%%%%%%%%%%%%%%%%%%%  lg  local_only:0   %%%%%%%%%%%%%%%%%%%%%%%%%%%%%%%%%%%%%%%%%% 

# alg: lg , epochs: 100, shard_per_user: 10, limit_local_output: 0, local_rep_ep: 3 , local_only: 0, is_concept_shift: 0, dataset: cifar10, level_n_system: 0.0 , level_n_lowerb:0.2  

Files already downloaded and verified
Files already downloaded and verified
lg
CNNCifar(
  (conv1): Conv2d(3, 64, kernel_size=(5, 5), stride=(1, 1))
  (pool): MaxPool2d(kernel_size=2, stride=2, padding=0, dilation=1, ceil_mode=False)
  (conv2): Conv2d(64, 64, kernel_size=(5, 5), stride=(1, 1))
  (fc1): Linear(in_features=1600, out_features=120, bias=True)
  (fc2): Linear(in_features=120, out_features=64, bias=True)
  (fc3): Linear(in_features=64, out_features=10, bias=True)
)
odict_keys(['conv1.weight', 'conv1.bias', 'conv2.weight', 'conv2.bias', 'fc1.weight', 'fc1.bias', 'fc2.weight', 'fc2.bias', 'fc3.weight', 'fc3.bias'])
10
['fc2.weight', 'fc2.bias', 'fc3.weight', 'fc3.bias']
['conv1.weight', 'conv1.bias', 'conv2.weight', 'conv2.bias', 'fc1.weight', 'fc1.bias', 'fc2.weight', 'fc2.bias', 'fc3.weight', 'fc3.bias']
# Params: 307842 (local), 8394 (global); Percentage 2.73 (8394/307842 
)
learning rate, batch size: 0.01, 10 

Final Round, Train loss: 0.093, Test loss: 4.309, Test accuracy: 42.52
Average accuracy final 10 rounds: … %%%%%%%%%%%%%%%%%%%%%%%%%%%%%%%%%%%%%%%%%%%%%%%%%%%%%%%%%%%%%%%%%%%%%%%%%%%%%%%%%%%%%%%%%% 

%%%%%%%%%%%%%%%%%%%%%%%%%%%%%%%%%%Fed_apfl%%%%%%%%%%%%%%%%%%%%%%%%%%%%%%%%%%%%%%%%%% 

Files already downloaded and verified
Files already downloaded and verified
CNNCifar(
  (conv1): Conv2d(3, 64, kernel_size=(5, 5), stride=(1, 1))
  (pool): MaxPool2d(kernel_size=2, stride=2, padding=0, dilation=1, ceil_mode=False)
  (conv2): Conv2d(64, 64, kernel_size=(5, 5), stride=(1, 1))
  (fc1): Linear(in_features=1600, out_features=120, bias=True)
  (fc2): Linear(in_features=120, out_features=64, bias=True)
  (fc3): Linear(in_features=64, out_features=10, bias=True)
)
odict_keys(['conv1.weight', 'conv1.bias', 'conv2.weight', 'conv2.bias', 'fc1.weight', 'fc1.bias', 'fc2.weight', 'fc2.bias', 'fc3.weight', 'fc3.bias'])
10
Round   0, Train loss: 1.446, Test loss: 1.881, Test accuracy: 29.99
Round   1, Train loss: 1.262, Test loss: 1.864, Test accuracy: 30.65
Round   2, Train loss: 1.178, Test loss: 1.940, Test accuracy: 28.64
…
['conv1.weight', 'conv1.bias', 'conv2.weight', 'conv2.bias', 'fc1.weight', 'fc1.bias', 'fc2.weight', 'fc2.bias', 'fc3.weight', 'fc3.bias']
learning rate, batch size: 0.01, 10 

Final Round, Train loss: 2.252, Test loss: 2.237, Test accuracy: 20.07
Final Round, Global train loss: 2.252, Global test loss: 2.240, Global test accuracy: 20.60
Average accuracy final 10 rounds: 20.105749999999997 

Average global accuracy final 10 rounds: … %%%%%%%%%%%%%%%%%%%%%%%%%%%%%%%%%%%%%%%%%%%%%%%%%%%%%%%%%%%%%%%%%%%%%%%%%%%%%%%%%%%%%%%%%% 

%%%%%%%%%%%%%%%%%%%%%%%%%%%%%%%%%%Fed_ditto%%%%%%%%%%%%%%%%%%%%%%%%%%%%%%%%%%%%%%%%%% 

Files already downloaded and verified
Files already downloaded and verified
CNNCifar(
  (conv1): Conv2d(3, 64, kernel_size=(5, 5), stride=(1, 1))
  (pool): MaxPool2d(kernel_size=2, stride=2, padding=0, dilation=1, ceil_mode=False)
  (conv2): Conv2d(64, 64, kernel_size=(5, 5), stride=(1, 1))
  (fc1): Linear(in_features=1600, out_features=120, bias=True)
  (fc2): Linear(in_features=120, out_features=64, bias=True)
  (fc3): Linear(in_features=64, out_features=10, bias=True)
)
odict_keys(['conv1.weight', 'conv1.bias', 'conv2.weight', 'conv2.bias', 'fc1.weight', 'fc1.bias', 'fc2.weight', 'fc2.bias', 'fc3.weight', 'fc3.bias'])
10
[]
['conv1.weight', 'conv1.bias', 'conv2.weight', 'conv2.bias', 'fc1.weight', 'fc1.bias', 'fc2.weight', 'fc2.bias', 'fc3.weight', 'fc3.bias']
Final Round, Train loss: 0.347, Test loss: 1.054, Test accuracy: 70.08
Average accuracy final 10 rounds: … %%%%%%%%%%%%%%%%%%%%%%%%%%%%%%%%%%%%%%%%%%%%%%%%%%%%%%%%%%%%%%%%%%%%%%%%%%%%%%%%%% 

%%%%%%%%%%%%%%%%%%%%%%%%%%%%%%%%%%FedPAC%%%%%%%%%%%%%%%%%%%%%%%%%%%%%%%%%%%%%%%%%% 

# alg: fedrep , epochs: 100, shard_per_user: 3, limit_local_output: 0, local_rep_ep: 3 , local_only: 0, is_concept_shift: 0, dataset: cifar10  

Files already downloaded and verified
Files already downloaded and verified
fedrep
CNNCifar(
  (conv1): Conv2d(3, 64, kernel_size=(5, 5), stride=(1, 1))
  (pool): MaxPool2d(kernel_size=2, stride=2, padding=0, dilation=1, ceil_mode=False)
  (conv2): Conv2d(64, 64, kernel_size=(5, 5), stride=(1, 1))
  (fc1): Linear(in_features=1600, out_features=120, bias=True)
  (fc2): Linear(in_features=120, out_features=64, bias=True)
  (fc3): Linear(in_features=64, out_features=10, bias=True)
)
odict_keys(['conv1.weight', 'conv1.bias', 'conv2.weight', 'conv2.bias', 'fc1.weight', 'fc1.bias', 'fc2.weight', 'fc2.bias', 'fc3.weight', 'fc3.bias'])
10
['fc1.weight', 'fc1.bias', 'fc2.weight', 'fc2.bias', 'conv2.weight', 'conv2.bias', 'conv1.weight', 'conv1.bias']
['conv1.weight', 'conv1.bias', 'conv2.weight', 'conv2.bias', 'fc1.weight', 'fc1.bias', 'fc2.weight', 'fc2.bias', 'fc3.weight', 'fc3.bias']
# Params: 307842 (local), 307192 (global); Percentage 99.79 (307192/307842)
learning rate, batch size: 0.01, 10
CNNCifar(
  (conv1): Conv2d(3, 64, kernel_size=(5, 5), stride=(1, 1))
  (pool): MaxPool2d(kernel_size=2, stride=2, padding=0, dilation=1, ceil_mode=False)
  (conv2): Conv2d(64, 64, kernel_size=(5, 5), stride=(1, 1))
  (fc1): Linear(in_features=1600, out_features=120, bias=True)
  (fc2): Linear(in_features=120, out_features=64, bias=True)
  (fc3): Linear(in_features=64, out_features=10, bias=True)
)
Final Round, Train loss: 0.544, Test loss: 0.975, Test accuracy: 67.33
Average accuracy final 10 rounds: … %%%%%%%%%%%%%%%%%%%%%%%%%%%%%%%%%%%%%%%%%%%%%%%%%%%%%%%%%%%%%%%%%%%%%%%%%%%%%%%%%%%%%%%%%% 

%%%%%%%%%%%%%%%%%%%%%%%%%%%%%%%%%%FedPAC-K-Means%%%%%%%%%%%%%%%%%%%%%%%%%%%%%%%%%%%%%%%%%% 

# alg: fedrep , epochs: 100, shard_per_user: 3, limit_local_output: 0, local_rep_ep: 3 , local_only: 0, is_concept_shift: 0, dataset: cifar10  

Files already downloaded and verified
Files already downloaded and verified
fedrep
CNNCifar(
  (conv1): Conv2d(3, 64, kernel_size=(5, 5), stride=(1, 1))
  (pool): MaxPool2d(kernel_size=2, stride=2, padding=0, dilation=1, ceil_mode=False)
  (conv2): Conv2d(64, 64, kernel_size=(5, 5), stride=(1, 1))
  (fc1): Linear(in_features=1600, out_features=120, bias=True)
  (fc2): Linear(in_features=120, out_features=64, bias=True)
  (fc3): Linear(in_features=64, out_features=10, bias=True)
)
odict_keys(['conv1.weight', 'conv1.bias', 'conv2.weight', 'conv2.bias', 'fc1.weight', 'fc1.bias', 'fc2.weight', 'fc2.bias', 'fc3.weight', 'fc3.bias'])
10
['fc1.weight', 'fc1.bias', 'fc2.weight', 'fc2.bias', 'conv2.weight', 'conv2.bias', 'conv1.weight', 'conv1.bias']
['conv1.weight', 'conv1.bias', 'conv2.weight', 'conv2.bias', 'fc1.weight', 'fc1.bias', 'fc2.weight', 'fc2.bias', 'fc3.weight', 'fc3.bias']
4800
4864
107264
107328
299328
299448
307128
307192
307832
307842
# Params: 307842 (local), 307192 (global); Percentage 99.79 (307192/307842)
learning rate, batch size: 0.01, 10
CNNCifar(
  (conv1): Conv2d(3, 64, kernel_size=(5, 5), stride=(1, 1))
  (pool): MaxPool2d(kernel_size=2, stride=2, padding=0, dilation=1, ceil_mode=False)
  (conv2): Conv2d(64, 64, kernel_size=(5, 5), stride=(1, 1))
  (fc1): Linear(in_features=1600, out_features=120, bias=True)
  (fc2): Linear(in_features=120, out_features=64, bias=True)
  (fc3): Linear(in_features=64, out_features=10, bias=True)
)
Final Round, Train loss: 0.553, Test loss: 0.979, Test accuracy: 67.43
Average accuracy final 10 rounds: … %%%%%%%%%%%%%%%%%%%%%%%%%%%%%%%%%%%%%%%%%%%%%%%%%%%%%%%%%%%%%%%%%%%%%%%%%%%%%%%%%% 

%%%%%%%%%%%%%%%%%%%%%%%%%%%%%%%%%%  fedavg  local_only:1   %%%%%%%%%%%%%%%%%%%%%%%%%%%%%%%%%%%%%%%%%% 

# alg: fedavg , epochs: 100, shard_per_user: 3, limit_local_output: 1, local_rep_ep: 3 , local_only: 1, is_concept_shift: 1, dataset: cifar10, level_n_system: 0.0 , level_n_lowerb:0.2  

Files already downloaded and verified
Files already downloaded and verified
fedavg
CNNCifar(
  (conv1): Conv2d(3, 64, kernel_size=(5, 5), stride=(1, 1))
  (pool): MaxPool2d(kernel_size=2, stride=2, padding=0, dilation=1, ceil_mode=False)
  (conv2): Conv2d(64, 64, kernel_size=(5, 5), stride=(1, 1))
  (fc1): Linear(in_features=1600, out_features=120, bias=True)
  (fc2): Linear(in_features=120, out_features=64, bias=True)
  (fc3): Linear(in_features=64, out_features=3, bias=True)
)
odict_keys(['conv1.weight', 'conv1.bias', 'conv2.weight', 'conv2.bias', 'fc1.weight', 'fc1.bias', 'fc2.weight', 'fc2.bias', 'fc3.weight', 'fc3.bias'])
10
[]
['conv1.weight', 'conv1.bias', 'conv2.weight', 'conv2.bias', 'fc1.weight', 'fc1.bias', 'fc2.weight', 'fc2.bias', 'fc3.weight', 'fc3.bias']
learning rate, batch size: 0.01, 10 

Final Round, Train loss: 0.066, Test loss: 1.248, Test accuracy: 76.97
Final Round, Global train loss: 0.066, Global test loss: 1.367, Global test accuracy: 38.09
Average accuracy final 10 rounds: 76.73500000000001 

Average global accuracy final 10 rounds: … %%%%%%%%%%%%%%%%%%%%%%%%%%%%%%%%%%%%%%%%%%%%%%%%%%%%%%%%%%%%%%%%%%%%%%%%%%%%%%%%%% 

%%%%%%%%%%%%%%%%%%%%%%%%%%%%%%%%%%  fedavg  local_only:0   %%%%%%%%%%%%%%%%%%%%%%%%%%%%%%%%%%%%%%%%%% 

# alg: fedavg , epochs: 100, shard_per_user: 3, limit_local_output: 1, local_rep_ep: 3 , local_only: 0, is_concept_shift: 1, dataset: cifar10, level_n_system: 0.0 , level_n_lowerb:0.0  

Files already downloaded and verified
Files already downloaded and verified
fedavg
CNNCifar(
  (conv1): Conv2d(3, 64, kernel_size=(5, 5), stride=(1, 1))
  (pool): MaxPool2d(kernel_size=2, stride=2, padding=0, dilation=1, ceil_mode=False)
  (conv2): Conv2d(64, 64, kernel_size=(5, 5), stride=(1, 1))
  (fc1): Linear(in_features=1600, out_features=120, bias=True)
  (fc2): Linear(in_features=120, out_features=64, bias=True)
  (fc3): Linear(in_features=64, out_features=3, bias=True)
)
odict_keys(['conv1.weight', 'conv1.bias', 'conv2.weight', 'conv2.bias', 'fc1.weight', 'fc1.bias', 'fc2.weight', 'fc2.bias', 'fc3.weight', 'fc3.bias'])
10
[]
['conv1.weight', 'conv1.bias', 'conv2.weight', 'conv2.bias', 'fc1.weight', 'fc1.bias', 'fc2.weight', 'fc2.bias', 'fc3.weight', 'fc3.bias']
learning rate, batch size: 0.01, 10 

Final Round, Train loss: 0.194, Test loss: 0.661, Test accuracy: 80.83
…
../aten/src/ATen/native/cuda/Loss.cu:250: nll_loss_forward_reduce_cuda_kernel_2d: block: [0,0,0], thread: [8,0,0] Assertion `t >= 0 && t < n_classes` failed.
../aten/src/ATen/native/cuda/Loss.cu:250: nll_loss_forward_reduce_cuda_kernel_2d: block: [0,0,0], thread: [9,0,0] Assertion `t >= 0 && t < n_classes` failed.
%%%%%%%%%%%%%%%%%%%%%%%%%%%%%%%%%%%%%%%%%%%%%%%%%%%%%%%%%%%%%%%%%%%%%%%%%%%%%%%%%%%%%%%%%% 

%%%%%%%%%%%%%%%%%%%%%%%%%%%%%%%%%%FedPAC-K-Means%%%%%%%%%%%%%%%%%%%%%%%%%%%%%%%%%%%%%%%%%% 

# alg: fedrep , epochs: 100, shard_per_user: 3, limit_local_output: 1, local_rep_ep: 3 , local_only: 0, is_concept_shift: 1, dataset: cifar10  

Files already downloaded and verified
Files already downloaded and verified
fedrep
CNNCifar(
  (conv1): Conv2d(3, 64, kernel_size=(5, 5), stride=(1, 1))
  (pool): MaxPool2d(kernel_size=2, stride=2, padding=0, dilation=1, ceil_mode=False)
  (conv2): Conv2d(64, 64, kernel_size=(5, 5), stride=(1, 1))
  (fc1): Linear(in_features=1600, out_features=120, bias=True)
  (fc2): Linear(in_features=120, out_features=64, bias=True)
  (fc3): Linear(in_features=64, out_features=3, bias=True)
)
odict_keys(['conv1.weight', 'conv1.bias', 'conv2.weight', 'conv2.bias', 'fc1.weight', 'fc1.bias', 'fc2.weight', 'fc2.bias', 'fc3.weight', 'fc3.bias'])
10
['fc1.weight', 'fc1.bias', 'fc2.weight', 'fc2.bias', 'conv2.weight', 'conv2.bias', 'conv1.weight', 'conv1.bias']
['conv1.weight', 'conv1.bias', 'conv2.weight', 'conv2.bias', 'fc1.weight', 'fc1.bias', 'fc2.weight', 'fc2.bias', 'fc3.weight', 'fc3.bias']
4800
4864
107264
107328
299328
299448
307128
307192
307384
307387
# Params: 307387 (local), 307192 (global); Percentage 99.94 (307192/307387)
learning rate, batch size: 0.01, 10
CNNCifar(
  (conv1): Conv2d(3, 64, kernel_size=(5, 5), stride=(1, 1))
  (pool): MaxPool2d(kernel_size=2, stride=2, padding=0, dilation=1, ceil_mode=False)
  (conv2): Conv2d(64, 64, kernel_size=(5, 5), stride=(1, 1))
  (fc1): Linear(in_features=1600, out_features=120, bias=True)
  (fc2): Linear(in_features=120, out_features=64, bias=True)
  (fc3): Linear(in_features=64, out_features=3, bias=True)
)
Traceback (most recent call last):
  File "main_fedpac_k_means.py", line 293, in <module>
    w_local, loss, indd, class_center_local, class_num = local.train(net=net_local.to(args.device), class_center_glob=class_center_grob_local, idx=idx, w_glob_keys=w_glob_keys, lr=args.lr, last=last, concept_matrix_local=concept_matrix[idx])
  File "/home/ChenSM/code/FL_HLS/models/Update.py", line 2223, in train
…
    fid = stack.enter_context(open(os_fspath(file), "rb"))
FileNotFoundError: [Errno 2] No such file or directory: 'data/sample/rand_set_all.npy'
/home/ChenSM/code/FL_HLS/utils/sampling.py:93: UserWarning: To copy construct from a tensor, it is recommended to use sourceTensor.clone().detach() or sourceTensor.clone().detach().requires_grad_(True), rather than torch.tensor(sourceTensor).
  label = torch.tensor(dataset.targets[i]).item()
%%%%%%%%%%%%%%%%%%%%%%%%%%%%%%%%%%%%%%%%%%%%%%%%%%%%%%%%%%%%%%%%%%%%%%%%%%%%%%%%%%%%%%%%%% 

%%%%%%%%%%%%%%%%%%%%%%%%%%%%%%%%%%Fed_apfl%%%%%%%%%%%%%%%%%%%%%%%%%%%%%%%%%%%%%%%%%% 

MLP(
  (layer_input): Linear(in_features=784, out_features=512, bias=True)
  (relu): ReLU()
  (dropout): Dropout(p=0, inplace=False)
  (layer_hidden1): Linear(in_features=512, out_features=256, bias=True)
  (layer_hidden2): Linear(in_features=256, out_features=64, bias=True)
  (layer_out): Linear(in_features=64, out_features=10, bias=True)
  (softmax): Softmax(dim=1)
)
odict_keys(['layer_input.weight', 'layer_input.bias', 'layer_hidden1.weight', 'layer_hidden1.bias', 'layer_hidden2.weight', 'layer_hidden2.bias', 'layer_out.weight', 'layer_out.bias'])
8
Final Round, Train loss: 1.101, Test loss: 1.713, Test accuracy: 83.98
Average accuracy final 10 rounds: … /home/ChenSM/code/FL_HLS/utils/sampling.py:93: UserWarning: To copy construct from a tensor, it is recommended to use sourceTensor.clone().detach() or sourceTensor.clone().detach().requires_grad_(True), rather than torch.tensor(sourceTensor).
  label = torch.tensor(dataset.targets[i]).item()
%%%%%%%%%%%%%%%%%%%%%%%%%%%%%%%%%%%%%%%%%%%%%%%%%%%%%%%%%%%%%%%%%%%%%%%%%%%%%%%%%%%%%%%%%% 

%%%%%%%%%%%%%%%%%%%%%%%%%%%%%%%%%% Fed_scaffold %%%%%%%%%%%%%%%%%%%%%%%%%%%%%%%%%%%%%%%%%% 

MLP(
  (layer_input): Linear(in_features=784, out_features=512, bias=True)
  (relu): ReLU()
  (dropout): Dropout(p=0, inplace=False)
  (layer_hidden1): Linear(in_features=512, out_features=256, bias=True)
  (layer_hidden2): Linear(in_features=256, out_features=64, bias=True)
  (layer_out): Linear(in_features=64, out_features=10, bias=True)
  (softmax): Softmax(dim=1)
)
Final Round, Train loss: 1.560, Test loss: 1.582, Test accuracy: 89.29
Average accuracy final 10 rounds: 86.45166666666667
Average global accuracy final 10 rounds: … /home/ChenSM/code/FL_HLS/utils/sampling.py:93: UserWarning: To copy construct from a tensor, it is recommended to use sourceTensor.clone().detach() or sourceTensor.clone().detach().requires_grad_(True), rather than torch.tensor(sourceTensor).
  label = torch.tensor(dataset.targets[i]).item()
%%%%%%%%%%%%%%%%%%%%%%%%%%%%%%%%%%%%%%%%%%%%%%%%%%%%%%%%%%%%%%%%%%%%%%%%%%%%%%%%%% 

%%%%%%%%%%%%%%%%%%%%%%%%%%%%%%%%%%  pFedMe   %%%%%%%%%%%%%%%%%%%%%%%%%%%%%%%%%%%%%%%%%% 

# alg: fedavg , epochs: 100, shard_per_user: 10, limit_local_output: 0, local_rep_ep: 3 , local_only: 0, is_concept_shift: 0, dataset: mnist  

fedavg
MLP(
  (layer_input): Linear(in_features=784, out_features=512, bias=True)
  (relu): ReLU()
  (dropout): Dropout(p=0, inplace=False)
  (layer_hidden1): Linear(in_features=512, out_features=256, bias=True)
  (layer_hidden2): Linear(in_features=256, out_features=64, bias=True)
  (layer_out): Linear(in_features=64, out_features=10, bias=True)
  (softmax): Softmax(dim=1)
)
odict_keys(['layer_input.weight', 'layer_input.bias', 'layer_hidden1.weight', 'layer_hidden1.bias', 'layer_hidden2.weight', 'layer_hidden2.bias', 'layer_out.weight', 'layer_out.bias'])
8
[]
['layer_input.weight', 'layer_input.bias', 'layer_hidden1.weight', 'layer_hidden1.bias', 'layer_hidden2.weight', 'layer_hidden2.bias', 'layer_out.weight', 'layer_out.bias']
…
Average accuracy final 10 rounds: … /home/ChenSM/code/FL_HLS/utils/sampling.py:93: UserWarning: To copy construct from a tensor, it is recommended to use sourceTensor.clone().detach() or sourceTensor.clone().detach().requires_grad_(True), rather than torch.tensor(sourceTensor).
  label = torch.tensor(dataset.targets[i]).item()
%%%%%%%%%%%%%%%%%%%%%%%%%%%%%%%%%%%%%%%%%%%%%%%%%%%%%%%%%%%%%%%%%%%%%%%%%%%%%%%%%% 

%%%%%%%%%%%%%%%%%%%%%%%%%%%%%%%%%%FedPAC%%%%%%%%%%%%%%%%%%%%%%%%%%%%%%%%%%%%%%%%%% 

# alg: fedrep , epochs: 100, shard_per_user: 10, limit_local_output: 0, local_rep_ep: 3 , local_only: 0, is_concept_shift: 0, dataset: mnist  

fedrep
MLP(
  (layer_input): Linear(in_features=784, out_features=512, bias=True)
  (relu): ReLU()
  (dropout): Dropout(p=0, inplace=False)
  (layer_hidden1): Linear(in_features=512, out_features=256, bias=True)
  (layer_hidden2): Linear(in_features=256, out_features=64, bias=True)
  (layer_out): Linear(in_features=64, out_features=10, bias=True)
  (softmax): Softmax(dim=1)
)
odict_keys(['layer_input.weight', 'layer_input.bias', 'layer_hidden1.weight', 'layer_hidden1.bias', 'layer_hidden2.weight', 'layer_hidden2.bias', 'layer_out.weight', 'layer_out.bias'])
8
['layer_input.weight', 'layer_input.bias', 'layer_hidden1.weight', 'layer_hidden1.bias', 'layer_hidden2.weight', 'layer_hidden2.bias']
['layer_input.weight', 'layer_input.bias', 'layer_hidden1.weight', 'layer_hidden1.bias', 'layer_hidden2.weight', 'layer_hidden2.bias', 'layer_out.weight', 'layer_out.bias']
# Params: 550346 (local), 549696 (global); Percentage 99.88 (549696/550346)
learning rate, batch size: 0.01, 10
MLP(
  (layer_input): Linear(in_features=784, out_features=512, bias=True)
  (relu): ReLU()
  (dropout): Dropout(p=0, inplace=False)
  (layer_hidden1): Linear(in_features=512, out_features=256, bias=True)
  (layer_hidden2): Linear(in_features=256, out_features=64, bias=True)
  (layer_out): Linear(in_features=64, out_features=10, bias=True)
  (softmax): Softmax(dim=1)
)
Final Round, Train loss: 1.479, Test loss: 1.508, Test accuracy: 96.27
Average accuracy final 10 rounds: … %%%%%%%%%%%%%%%%%%%%%%%%%%%%%%%%%%%%%%%%%%%%%%%%%%%%%%%%%%%%%%%%%%%%%%%%%%%%%%%%%%%%%%%%%% 

%%%%%%%%%%%%%%%%%%%%%%%%%%%%%%%%%%FedPAC-K-Means%%%%%%%%%%%%%%%%%%%%%%%%%%%%%%%%%%%%%%%%%% 

# alg: fedrep , epochs: 100, shard_per_user: 10, limit_local_output: 0, local_rep_ep: 3 , local_only: 0, is_concept_shift: 0, dataset: mnist  

fedrep
MLP(
  (layer_input): Linear(in_features=784, out_features=512, bias=True)
  (relu): ReLU()
  (dropout): Dropout(p=0, inplace=False)
  (layer_hidden1): Linear(in_features=512, out_features=256, bias=True)
  (layer_hidden2): Linear(in_features=256, out_features=64, bias=True)
  (layer_out): Linear(in_features=64, out_features=10, bias=True)
  (softmax): Softmax(dim=1)
)
odict_keys(['layer_input.weight', 'layer_input.bias', 'layer_hidden1.weight', 'layer_hidden1.bias', 'layer_hidden2.weight', 'layer_hidden2.bias', 'layer_out.weight', 'layer_out.bias'])
8
['layer_input.weight', 'layer_input.bias', 'layer_hidden1.weight', 'layer_hidden1.bias', 'layer_hidden2.weight', 'layer_hidden2.bias']
['layer_input.weight', 'layer_input.bias', 'layer_hidden1.weight', 'layer_hidden1.bias', 'layer_hidden2.weight', 'layer_hidden2.bias', 'layer_out.weight', 'layer_out.bias']
401408
401920
532992
533248
549632
549696
550336
550346
# Params: 550346 (local), 549696 (global); Percentage 99.88 (549696/550346)
learning rate, batch size: 0.01, 10
MLP(
  (layer_input): Linear(in_features=784, out_features=512, bias=True)
  (relu): ReLU()
  (dropout): Dropout(p=0, inplace=False)
  (layer_hidden1): Linear(in_features=512, out_features=256, bias=True)
  (layer_hidden2): Linear(in_features=256, out_features=64, bias=True)
  (layer_out): Linear(in_features=64, out_features=10, bias=True)
  (softmax): Softmax(dim=1)
)
Final Round, Train loss: 1.489, Test loss: 1.517, Test accuracy: 96.74
Average accuracy final 10 rounds: … /home/ChenSM/code/FL_HLS/utils/sampling.py:93: UserWarning: To copy construct from a tensor, it is recommended to use sourceTensor.clone().detach() or sourceTensor.clone().detach().requires_grad_(True), rather than torch.tensor(sourceTensor).
…
Average accuracy final 10 rounds: … /home/ChenSM/code/FL_HLS/utils/sampling.py:93: UserWarning: To copy construct from a tensor, it is recommended to use sourceTensor.clone().detach() or sourceTensor.clone().detach().requires_grad_(True), rather than torch.tensor(sourceTensor).
  label = torch.tensor(dataset.targets[i]).item()
%%%%%%%%%%%%%%%%%%%%%%%%%%%%%%%%%%%%%%%%%%%%%%%%%%%%%%%%%%%%%%%%%%%%%%%%%%%%%%%%%% 

%%%%%%%%%%%%%%%%%%%%%%%%%%%%%%%%%%FedPAC%%%%%%%%%%%%%%%%%%%%%%%%%%%%%%%%%%%%%%%%%% 

# alg: fedrep , epochs: 100, shard_per_user: 3, limit_local_output: 0, local_rep_ep: 3 , local_only: 0, is_concept_shift: 0, dataset: mnist  

fedrep
MLP(
  (layer_input): Linear(in_features=784, out_features=512, bias=True)
  (relu): ReLU()
  (dropout): Dropout(p=0, inplace=False)
  (layer_hidden1): Linear(in_features=512, out_features=256, bias=True)
  (layer_hidden2): Linear(in_features=256, out_features=64, bias=True)
  (layer_out): Linear(in_features=64, out_features=10, bias=True)
  (softmax): Softmax(dim=1)
)
odict_keys(['layer_input.weight', 'layer_input.bias', 'layer_hidden1.weight', 'layer_hidden1.bias', 'layer_hidden2.weight', 'layer_hidden2.bias', 'layer_out.weight', 'layer_out.bias'])
8
['layer_input.weight', 'layer_input.bias', 'layer_hidden1.weight', 'layer_hidden1.bias', 'layer_hidden2.weight', 'layer_hidden2.bias']
['layer_input.weight', 'layer_input.bias', 'layer_hidden1.weight', 'layer_hidden1.bias', 'layer_hidden2.weight', 'layer_hidden2.bias', 'layer_out.weight', 'layer_out.bias']
# Params: 550346 (local), 549696 (global); Percentage 99.88 (549696/550346)
learning rate, batch size: 0.01, 10
MLP(
  (layer_input): Linear(in_features=784, out_features=512, bias=True)
  (relu): ReLU()
  (dropout): Dropout(p=0, inplace=False)
  (layer_hidden1): Linear(in_features=512, out_features=256, bias=True)
  (layer_hidden2): Linear(in_features=256, out_features=64, bias=True)
  (layer_out): Linear(in_features=64, out_features=10, bias=True)
  (softmax): Softmax(dim=1)
)
Final Round, Train loss: 1.473, Test loss: 1.505, Test accuracy: 96.64
Average accuracy final 10 rounds: … %%%%%%%%%%%%%%%%%%%%%%%%%%%%%%%%%%%%%%%%%%%%%%%%%%%%%%%%%%%%%%%%%%%%%%%%%%%%%%%%%%%%%%%%%% 

%%%%%%%%%%%%%%%%%%%%%%%%%%%%%%%%%%FedPAC-K-Means%%%%%%%%%%%%%%%%%%%%%%%%%%%%%%%%%%%%%%%%%% 

# alg: fedrep , epochs: 100, shard_per_user: 3, limit_local_output: 0, local_rep_ep: 3 , local_only: 0, is_concept_shift: 0, dataset: mnist  

fedrep
MLP(
  (layer_input): Linear(in_features=784, out_features=512, bias=True)
  (relu): ReLU()
  (dropout): Dropout(p=0, inplace=False)
  (layer_hidden1): Linear(in_features=512, out_features=256, bias=True)
  (layer_hidden2): Linear(in_features=256, out_features=64, bias=True)
  (layer_out): Linear(in_features=64, out_features=10, bias=True)
  (softmax): Softmax(dim=1)
)
odict_keys(['layer_input.weight', 'layer_input.bias', 'layer_hidden1.weight', 'layer_hidden1.bias', 'layer_hidden2.weight', 'layer_hidden2.bias', 'layer_out.weight', 'layer_out.bias'])
8
['layer_input.weight', 'layer_input.bias', 'layer_hidden1.weight', 'layer_hidden1.bias', 'layer_hidden2.weight', 'layer_hidden2.bias']
['layer_input.weight', 'layer_input.bias', 'layer_hidden1.weight', 'layer_hidden1.bias', 'layer_hidden2.weight', 'layer_hidden2.bias', 'layer_out.weight', 'layer_out.bias']
401408
401920
532992
533248
549632
549696
550336
550346
# Params: 550346 (local), 549696 (global); Percentage 99.88 (549696/550346)
learning rate, batch size: 0.01, 10
MLP(
  (layer_input): Linear(in_features=784, out_features=512, bias=True)
  (relu): ReLU()
  (dropout): Dropout(p=0, inplace=False)
  (layer_hidden1): Linear(in_features=512, out_features=256, bias=True)
  (layer_hidden2): Linear(in_features=256, out_features=64, bias=True)
  (layer_out): Linear(in_features=64, out_features=10, bias=True)
  (softmax): Softmax(dim=1)
)
Final Round, Train loss: 1.478, Test loss: 1.514, Test accuracy: 96.91
Average accuracy final 10 rounds: … /home/ChenSM/code/FL_HLS/utils/sampling.py:93: UserWarning: To copy construct from a tensor, it is recommended to use sourceTensor.clone().detach() or sourceTensor.clone().detach().requires_grad_(True), rather than torch.tensor(sourceTensor).
  label = torch.tensor(dataset.targets[i]).item()

%%%%%%%%%%%%%%%%%%%%%%%%%%%%%%%%%%%%%%%%%%%%%%%%%%%%%%%%%%%%%%%%%%%%%%%%%%%%%%%%%% 

%%%%%%%%%%%%%%%%%%%%%%%%%%%%%%%%%%  fedavg  local_only:1   %%%%%%%%%%%%%%%%%%%%%%%%%%%%%%%%%%%%%%%%%% 

# alg: fedavg , epochs: 100, shard_per_user: 3, limit_local_output: 1, local_rep_ep: 3 , local_only: 1, is_concept_shift: 1, dataset: mnist, level_n_system: 0.0 , level_n_lowerb:0.0  

fedavg
MLP(
  (layer_input): Linear(in_features=784, out_features=512, bias=True)
  (relu): ReLU()
  (dropout): Dropout(p=0, inplace=False)
  (layer_hidden1): Linear(in_features=512, out_features=256, bias=True)
  (layer_hidden2): Linear(in_features=256, out_features=64, bias=True)
  (layer_out): Linear(in_features=64, out_features=10, bias=True)
  (softmax): Softmax(dim=1)
)
odict_keys(['layer_input.weight', 'layer_input.bias', 'layer_hidden1.weight', 'layer_hidden1.bias', 'layer_hidden2.weight', 'layer_hidden2.bias', 'layer_out.weight', 'layer_out.bias'])
8
[]
['layer_input.weight', 'layer_input.bias', 'layer_hidden1.weight', 'layer_hidden1.bias', 'layer_hidden2.weight', 'layer_hidden2.bias', 'layer_out.weight', 'layer_out.bias']
…
/home/ChenSM/code/FL_HLS/utils/sampling.py:93: UserWarning: To copy construct from a tensor, it is recommended to use sourceTensor.clone().detach() or sourceTensor.clone().detach().requires_grad_(True), rather than torch.tensor(sourceTensor).
  label = torch.tensor(dataset.targets[i]).item()
%%%%%%%%%%%%%%%%%%%%%%%%%%%%%%%%%%%%%%%%%%%%%%%%%%%%%%%%%%%%%%%%%%%%%%%%%%%%%%%%%% 

%%%%%%%%%%%%%%%%%%%%%%%%%%%%%%%%%%FedPAC%%%%%%%%%%%%%%%%%%%%%%%%%%%%%%%%%%%%%%%%%% 

# alg: fedrep , epochs: 100, shard_per_user: 3, limit_local_output: 1, local_rep_ep: 3 , local_only: 0, is_concept_shift: 1, dataset: mnist  

fedrep
MLP(
  (layer_input): Linear(in_features=784, out_features=512, bias=True)
  (relu): ReLU()
  (dropout): Dropout(p=0, inplace=False)
  (layer_hidden1): Linear(in_features=512, out_features=256, bias=True)
  (layer_hidden2): Linear(in_features=256, out_features=64, bias=True)
  (layer_out): Linear(in_features=64, out_features=10, bias=True)
  (softmax): Softmax(dim=1)
)
odict_keys(['layer_input.weight', 'layer_input.bias', 'layer_hidden1.weight', 'layer_hidden1.bias', 'layer_hidden2.weight', 'layer_hidden2.bias', 'layer_out.weight', 'layer_out.bias'])
8
['layer_input.weight', 'layer_input.bias', 'layer_hidden1.weight', 'layer_hidden1.bias', 'layer_hidden2.weight', 'layer_hidden2.bias']
['layer_input.weight', 'layer_input.bias', 'layer_hidden1.weight', 'layer_hidden1.bias', 'layer_hidden2.weight', 'layer_hidden2.bias', 'layer_out.weight', 'layer_out.bias']
# Params: 550346 (local), 549696 (global); Percentage 99.88 (549696/550346)
learning rate, batch size: 0.01, 10
MLP(
  (layer_input): Linear(in_features=784, out_features=512, bias=True)
  (relu): ReLU()
  (dropout): Dropout(p=0, inplace=False)
  (layer_hidden1): Linear(in_features=512, out_features=256, bias=True)
  (layer_hidden2): Linear(in_features=256, out_features=64, bias=True)
  (layer_out): Linear(in_features=64, out_features=10, bias=True)
  (softmax): Softmax(dim=1)
)
Traceback (most recent call last):
  File "main_fedpac.py", line 232, in <module>
    w_local, loss, indd, class_center_local, class_num = local.train(net=net_local.to(args.device), class_center_glob=class_center_glob, idx=idx, w_glob_keys=w_glob_keys, lr=args.lr, last=last, concept_matrix_local=concept_matrix[idx])
  File "/home/ChenSM/code/FL_HLS/models/Update.py", line 1319, in train
…
# Params: 307842 (local), 307192 (global); Percentage 99.79 (307192/307842 
)
learning rate, batch size: 0.01, 10 

Final Round, Train loss: 0.193, Test loss: 0.375, Test accuracy: 86.83
Average accuracy final 10 rounds: … %%%%%%%%%%%%%%%%%%%%%%%%%%%%%%%%%%%%%%%%%%%%%%%%%%%%%%%%%%%%%%%%%%%%%%%%%%%%%%%%%%%%%%%%%% 

%%%%%%%%%%%%%%%%%%%%%%%%%%%%%%%%%%FedPAC-K-Means%%%%%%%%%%%%%%%%%%%%%%%%%%%%%%%%%%%%%%%%%% 

# alg: fedrep , epochs: 100, shard_per_user: 10, limit_local_output: 0, local_rep_ep: 3 , local_only: 0, is_concept_shift: 1, dataset: cifar10  

Files already downloaded and verified
Files already downloaded and verified
fedrep
CNNCifar(
  (conv1): Conv2d(3, 64, kernel_size=(5, 5), stride=(1, 1))
  (pool): MaxPool2d(kernel_size=2, stride=2, padding=0, dilation=1, ceil_mode=False)
  (conv2): Conv2d(64, 64, kernel_size=(5, 5), stride=(1, 1))
  (fc1): Linear(in_features=1600, out_features=120, bias=True)
  (fc2): Linear(in_features=120, out_features=64, bias=True)
  (fc3): Linear(in_features=64, out_features=10, bias=True)
)
odict_keys(['conv1.weight', 'conv1.bias', 'conv2.weight', 'conv2.bias', 'fc1.weight', 'fc1.bias', 'fc2.weight', 'fc2.bias', 'fc3.weight', 'fc3.bias'])
10
['fc1.weight', 'fc1.bias', 'fc2.weight', 'fc2.bias', 'conv2.weight', 'conv2.bias', 'conv1.weight', 'conv1.bias']
['conv1.weight', 'conv1.bias', 'conv2.weight', 'conv2.bias', 'fc1.weight', 'fc1.bias', 'fc2.weight', 'fc2.bias', 'fc3.weight', 'fc3.bias']
4800
4864
107264
107328
299328
299448
307128
307192
307832
307842
# Params: 307842 (local), 307192 (global); Percentage 99.79 (307192/307842)
learning rate, batch size: 0.01, 10
CNNCifar(
  (conv1): Conv2d(3, 64, kernel_size=(5, 5), stride=(1, 1))
  (pool): MaxPool2d(kernel_size=2, stride=2, padding=0, dilation=1, ceil_mode=False)
  (conv2): Conv2d(64, 64, kernel_size=(5, 5), stride=(1, 1))
  (fc1): Linear(in_features=1600, out_features=120, bias=True)
  (fc2): Linear(in_features=120, out_features=64, bias=True)
  (fc3): Linear(in_features=64, out_features=10, bias=True)
)
Final Round, Train loss: 0.195, Test loss: 0.334, Test accuracy: 87.43
Average accuracy final 10 rounds: … %%%%%%%%%%%%%%%%%%%%%%%%%%%%%%%%%%%%%%%%%%%%%%%%%%%%%%%%%%%%%%%%%%%%%%%%%%%%%%%%%%%%%%%%%% 

%%%%%%%%%%%%%%%%%%%%%%%%%%%%%%%%%%Fed_ditto%%%%%%%%%%%%%%%%%%%%%%%%%%%%%%%%%%%%%%%%%% 

Files already downloaded and verified
Files already downloaded and verified
CNNCifar(
  (conv1): Conv2d(3, 64, kernel_size=(5, 5), stride=(1, 1))
  (pool): MaxPool2d(kernel_size=2, stride=2, padding=0, dilation=1, ceil_mode=False)
  (conv2): Conv2d(64, 64, kernel_size=(5, 5), stride=(1, 1))
  (fc1): Linear(in_features=1600, out_features=120, bias=True)
  (fc2): Linear(in_features=120, out_features=64, bias=True)
  (fc3): Linear(in_features=64, out_features=10, bias=True)
)
odict_keys(['conv1.weight', 'conv1.bias', 'conv2.weight', 'conv2.bias', 'fc1.weight', 'fc1.bias', 'fc2.weight', 'fc2.bias', 'fc3.weight', 'fc3.bias'])
10
[]
['conv1.weight', 'conv1.bias', 'conv2.weight', 'conv2.bias', 'fc1.weight', 'fc1.bias', 'fc2.weight', 'fc2.bias', 'fc3.weight', 'fc3.bias']
Final Round, Train loss: 0.158, Test loss: 1.111, Test accuracy: 67.12
Average accuracy final 10 rounds: … %%%%%%%%%%%%%%%%%%%%%%%%%%%%%%%%%%%%%%%%%%%%%%%%%%%%%%%%%%%%%%%%%%%%%%%%%%%%%%%%%% 

%%%%%%%%%%%%%%%%%%%%%%%%%%%%%%%%%%  pFedMe   %%%%%%%%%%%%%%%%%%%%%%%%%%%%%%%%%%%%%%%%%% 

# alg: fedavg , epochs: 100, shard_per_user: 10, limit_local_output: 0, local_rep_ep: 3 , local_only: 0, is_concept_shift: 1, dataset: cifar10  

Files already downloaded and verified
Files already downloaded and verified
fedavg
CNNCifar(
  (conv1): Conv2d(3, 64, kernel_size=(5, 5), stride=(1, 1))
  (pool): MaxPool2d(kernel_size=2, stride=2, padding=0, dilation=1, ceil_mode=False)
  (conv2): Conv2d(64, 64, kernel_size=(5, 5), stride=(1, 1))
  (fc1): Linear(in_features=1600, out_features=120, bias=True)
  (fc2): Linear(in_features=120, out_features=64, bias=True)
  (fc3): Linear(in_features=64, out_features=10, bias=True)
)
odict_keys(['conv1.weight', 'conv1.bias', 'conv2.weight', 'conv2.bias', 'fc1.weight', 'fc1.bias', 'fc2.weight', 'fc2.bias', 'fc3.weight', 'fc3.bias'])
10
[]
['conv1.weight', 'conv1.bias', 'conv2.weight', 'conv2.bias', 'fc1.weight', 'fc1.bias', 'fc2.weight', 'fc2.bias', 'fc3.weight', 'fc3.bias']
learning rate, batch size: 0.01, 10 

Final Round, Train loss: 2.269, Test loss: 2.259, Test accuracy: 21.86
…
# Params: 307842 (local), 307192 (global); Percentage 99.79 (307192/307842 
)
learning rate, batch size: 0.01, 10 

Final Round, Train loss: 0.395, Test loss: 0.791, Test accuracy: 75.89
Average accuracy final 10 rounds: … %%%%%%%%%%%%%%%%%%%%%%%%%%%%%%%%%%%%%%%%%%%%%%%%%%%%%%%%%%%%%%%%%%%%%%%%%%%%%%%%%%%%%%%%%% 

%%%%%%%%%%%%%%%%%%%%%%%%%%%%%%%%%%FedPAC-K-Means%%%%%%%%%%%%%%%%%%%%%%%%%%%%%%%%%%%%%%%%%% 

# alg: fedrep , epochs: 100, shard_per_user: 10, limit_local_output: 0, local_rep_ep: 3 , local_only: 0, is_concept_shift: 1, dataset: cifar10  

Files already downloaded and verified
Files already downloaded and verified
fedrep
CNNCifar(
  (conv1): Conv2d(3, 64, kernel_size=(5, 5), stride=(1, 1))
  (pool): MaxPool2d(kernel_size=2, stride=2, padding=0, dilation=1, ceil_mode=False)
  (conv2): Conv2d(64, 64, kernel_size=(5, 5), stride=(1, 1))
  (fc1): Linear(in_features=1600, out_features=120, bias=True)
  (fc2): Linear(in_features=120, out_features=64, bias=True)
  (fc3): Linear(in_features=64, out_features=10, bias=True)
)
odict_keys(['conv1.weight', 'conv1.bias', 'conv2.weight', 'conv2.bias', 'fc1.weight', 'fc1.bias', 'fc2.weight', 'fc2.bias', 'fc3.weight', 'fc3.bias'])
10
['fc1.weight', 'fc1.bias', 'fc2.weight', 'fc2.bias', 'conv2.weight', 'conv2.bias', 'conv1.weight', 'conv1.bias']
['conv1.weight', 'conv1.bias', 'conv2.weight', 'conv2.bias', 'fc1.weight', 'fc1.bias', 'fc2.weight', 'fc2.bias', 'fc3.weight', 'fc3.bias']
4800
4864
107264
107328
299328
299448
307128
307192
307832
307842
# Params: 307842 (local), 307192 (global); Percentage 99.79 (307192/307842)
learning rate, batch size: 0.01, 10
CNNCifar(
  (conv1): Conv2d(3, 64, kernel_size=(5, 5), stride=(1, 1))
  (pool): MaxPool2d(kernel_size=2, stride=2, padding=0, dilation=1, ceil_mode=False)
  (conv2): Conv2d(64, 64, kernel_size=(5, 5), stride=(1, 1))
  (fc1): Linear(in_features=1600, out_features=120, bias=True)
  (fc2): Linear(in_features=120, out_features=64, bias=True)
  (fc3): Linear(in_features=64, out_features=10, bias=True)
)
Final Round, Train loss: 0.421, Test loss: 0.734, Test accuracy: 76.68
Average accuracy final 10 rounds: … %%%%%%%%%%%%%%%%%%%%%%%%%%%%%%%%%%%%%%%%%%%%%%%%%%%%%%%%%%%%%%%%%%%%%%%%%%%%%%%%%%%%%%%%%% 

%%%%%%%%%%%%%%%%%%%%%%%%%%%%%%%%%%Fed_ditto%%%%%%%%%%%%%%%%%%%%%%%%%%%%%%%%%%%%%%%%%% 

Files already downloaded and verified
Files already downloaded and verified
CNNCifar(
  (conv1): Conv2d(3, 64, kernel_size=(5, 5), stride=(1, 1))
  (pool): MaxPool2d(kernel_size=2, stride=2, padding=0, dilation=1, ceil_mode=False)
  (conv2): Conv2d(64, 64, kernel_size=(5, 5), stride=(1, 1))
  (fc1): Linear(in_features=1600, out_features=120, bias=True)
  (fc2): Linear(in_features=120, out_features=64, bias=True)
  (fc3): Linear(in_features=64, out_features=10, bias=True)
)
odict_keys(['conv1.weight', 'conv1.bias', 'conv2.weight', 'conv2.bias', 'fc1.weight', 'fc1.bias', 'fc2.weight', 'fc2.bias', 'fc3.weight', 'fc3.bias'])
10
[]
['conv1.weight', 'conv1.bias', 'conv2.weight', 'conv2.bias', 'fc1.weight', 'fc1.bias', 'fc2.weight', 'fc2.bias', 'fc3.weight', 'fc3.bias']
Round   0, Train loss: 1.126, Test loss: 2.213, Test accuracy: 18.86
…
