nohup: ignoring input
%%%%%%%%%%%%%%%%%%%%%%%%%%%%%%%%%%%%%%%%%%%%%%%%%%%%%%%%%%%%%%%%%%%%%%%%%%%%%%%%%% 

%%%%%%%%%%%%%%%%%%%%%%%%%%%%%%%%%%  fedavg  local_only:0   %%%%%%%%%%%%%%%%%%%%%%%%%%%%%%%%%%%%%%%%%% 

# alg: fedavg , epochs: 100, shard_per_user: 4, limit_local_output: 0, local_rep_ep: 3 , local_only: 0, is_concept_shift: 0, dataset: cifar10, level_n_system: 0.0 , level_n_lowerb:0.0  

Files already downloaded and verified
Files already downloaded and verified
fedavg
CNNCifar(
  (conv1): Conv2d(3, 64, kernel_size=(5, 5), stride=(1, 1))
  (pool): MaxPool2d(kernel_size=2, stride=2, padding=0, dilation=1, ceil_mode=False)
  (conv2): Conv2d(64, 64, kernel_size=(5, 5), stride=(1, 1))
  (fc1): Linear(in_features=1600, out_features=120, bias=True)
  (fc2): Linear(in_features=120, out_features=64, bias=True)
  (fc3): Linear(in_features=64, out_features=4, bias=True)
)
odict_keys(['conv1.weight', 'conv1.bias', 'conv2.weight', 'conv2.bias', 'fc1.weight', 'fc1.bias', 'fc2.weight', 'fc2.bias', 'fc3.weight', 'fc3.bias'])
10
[]
['conv1.weight', 'conv1.bias', 'conv2.weight', 'conv2.bias', 'fc1.weight', 'fc1.bias', 'fc2.weight', 'fc2.bias', 'fc3.weight', 'fc3.bias']
learning rate, batch size: 0.01, 10 

Round   0, Train loss: 1.320, Test loss: 1.189, Test accuracy: 48.56
…
Round  98, Train loss: 0.296, Test loss: 0.494, Test accuracy: 82.75
Round  99, Train loss: 0.263, Test loss: 0.495, Test accuracy: 82.66
Final Round, Train loss: 0.247, Test loss: 0.498, Test accuracy: 82.47
Average accuracy final 10 rounds: … %%%%%%%%%%%%%%%%%%%%%%%%%%%%%%%%%%%%%%%%%%%%%%%%%%%%%%%%%%%%%%%%%%%%%%%%%%%%%%%%%% 

%%%%%%%%%%%%%%%%%%%%%%%%%%%%%%%%%%FedPAC%%%%%%%%%%%%%%%%%%%%%%%%%%%%%%%%%%%%%%%%%% 

# alg: fedrep , epochs: 100, shard_per_user: 4, limit_local_output: 0, local_rep_ep: 3 , local_only: 0, is_concept_shift: 0, dataset: cifar10  

Files already downloaded and verified
Files already downloaded and verified
CNNCifar(
  (conv1): Conv2d(3, 64, kernel_size=(5, 5), stride=(1, 1))
  (pool): MaxPool2d(kernel_size=2, stride=2, padding=0, dilation=1, ceil_mode=False)
  (conv2): Conv2d(64, 64, kernel_size=(5, 5), stride=(1, 1))
  (fc1): Linear(in_features=1600, out_features=120, bias=True)
  (fc2): Linear(in_features=120, out_features=64, bias=True)
  (fc3): Linear(in_features=64, out_features=4, bias=True)
)
odict_keys(['conv1.weight', 'conv1.bias', 'conv2.weight', 'conv2.bias', 'fc1.weight', 'fc1.bias', 'fc2.weight', 'fc2.bias', 'fc3.weight', 'fc3.bias'])
10
['fc1.weight', 'fc1.bias', 'fc2.weight', 'fc2.bias', 'conv2.weight', 'conv2.bias', 'conv1.weight', 'conv1.bias']
['conv1.weight', 'conv1.bias', 'conv2.weight', 'conv2.bias', 'fc1.weight', 'fc1.bias', 'fc2.weight', 'fc2.bias', 'fc3.weight', 'fc3.bias']
# Params: 307452 (local), 307192 (global); Percentage 99.92 (307192/307452)
learning rate, batch size: 0.01, 10
CNNCifar(
  (conv1): Conv2d(3, 64, kernel_size=(5, 5), stride=(1, 1))
  (pool): MaxPool2d(kernel_size=2, stride=2, padding=0, dilation=1, ceil_mode=False)
  (conv2): Conv2d(64, 64, kernel_size=(5, 5), stride=(1, 1))
  (fc1): Linear(in_features=1600, out_features=120, bias=True)
  (fc2): Linear(in_features=120, out_features=64, bias=True)
  (fc3): Linear(in_features=64, out_features=4, bias=True)
)
Round   0, Train loss: 1.380, Test loss: 1.252, Test accuracy: 42.95
Round   1, Train loss: 1.235, Test loss: 1.119, Test accuracy: 52.38
Round   2, Train loss: 1.115, Test loss: 0.988, Test accuracy: 61.69
Round   3, Train loss: 1.013, Test loss: 0.910, Test accuracy: 65.71
Round   4, Train loss: 0.942, Test loss: 0.853, Test accuracy: 67.65
Round   5, Train loss: 0.878, Test loss: 0.812, Test accuracy: 69.53
…
Final Round, Global train loss: 0.943, Global test loss: 0.859, Global test accuracy: 67.08
Average accuracy final 10 rounds: 65.7775 

Average global accuracy final 10 rounds: … %%%%%%%%%%%%%%%%%%%%%%%%%%%%%%%%%%%%%%%%%%%%%%%%%%%%%%%%%%%%%%%%%%%%%%%%%%%%%%%%%% 

%%%%%%%%%%%%%%%%%%%%%%%%%%%%%%%%%%  fedavg  local_only:0   %%%%%%%%%%%%%%%%%%%%%%%%%%%%%%%%%%%%%%%%%% 

# alg: fedavg , epochs: 100, shard_per_user: 4, limit_local_output: 0, local_rep_ep: 3 , local_only: 0, is_concept_shift: 0, dataset: cifar10, level_n_system: 0.0 , level_n_lowerb:0.0  

Files already downloaded and verified
Files already downloaded and verified
fedavg
CNNCifar(
  (conv1): Conv2d(3, 64, kernel_size=(5, 5), stride=(1, 1))
  (pool): MaxPool2d(kernel_size=2, stride=2, padding=0, dilation=1, ceil_mode=False)
  (conv2): Conv2d(64, 64, kernel_size=(5, 5), stride=(1, 1))
  (fc1): Linear(in_features=1600, out_features=120, bias=True)
  (fc2): Linear(in_features=120, out_features=64, bias=True)
  (fc3): Linear(in_features=64, out_features=6, bias=True)
)
odict_keys(['conv1.weight', 'conv1.bias', 'conv2.weight', 'conv2.bias', 'fc1.weight', 'fc1.bias', 'fc2.weight', 'fc2.bias', 'fc3.weight', 'fc3.bias'])
10
[]
['conv1.weight', 'conv1.bias', 'conv2.weight', 'conv2.bias', 'fc1.weight', 'fc1.bias', 'fc2.weight', 'fc2.bias', 'fc3.weight', 'fc3.bias']
learning rate, batch size: 0.01, 10 

Round   0, Train loss: 1.392, Test loss: 1.557, Test accuracy: 36.54
…
Round  98, Train loss: 0.378, Test loss: 0.668, Test accuracy: 75.89
Round  99, Train loss: 0.400, Test loss: 0.657, Test accuracy: 75.83
Final Round, Train loss: 0.362, Test loss: 0.663, Test accuracy: 76.05
Average accuracy final 10 rounds: … %%%%%%%%%%%%%%%%%%%%%%%%%%%%%%%%%%%%%%%%%%%%%%%%%%%%%%%%%%%%%%%%%%%%%%%%%%%%%%%%%% 

%%%%%%%%%%%%%%%%%%%%%%%%%%%%%%%%%%FedPAC%%%%%%%%%%%%%%%%%%%%%%%%%%%%%%%%%%%%%%%%%% 

# alg: fedrep , epochs: 100, shard_per_user: 4, limit_local_output: 0, local_rep_ep: 3 , local_only: 0, is_concept_shift: 0, dataset: cifar10  

Files already downloaded and verified
Files already downloaded and verified
CNNCifar(
  (conv1): Conv2d(3, 64, kernel_size=(5, 5), stride=(1, 1))
  (pool): MaxPool2d(kernel_size=2, stride=2, padding=0, dilation=1, ceil_mode=False)
  (conv2): Conv2d(64, 64, kernel_size=(5, 5), stride=(1, 1))
  (fc1): Linear(in_features=1600, out_features=120, bias=True)
  (fc2): Linear(in_features=120, out_features=64, bias=True)
  (fc3): Linear(in_features=64, out_features=6, bias=True)
)
odict_keys(['conv1.weight', 'conv1.bias', 'conv2.weight', 'conv2.bias', 'fc1.weight', 'fc1.bias', 'fc2.weight', 'fc2.bias', 'fc3.weight', 'fc3.bias'])
10
['fc1.weight', 'fc1.bias', 'fc2.weight', 'fc2.bias', 'conv2.weight', 'conv2.bias', 'conv1.weight', 'conv1.bias']
['conv1.weight', 'conv1.bias', 'conv2.weight', 'conv2.bias', 'fc1.weight', 'fc1.bias', 'fc2.weight', 'fc2.bias', 'fc3.weight', 'fc3.bias']
# Params: 307582 (local), 307192 (global); Percentage 99.87 (307192/307582)
learning rate, batch size: 0.01, 10
CNNCifar(
  (conv1): Conv2d(3, 64, kernel_size=(5, 5), stride=(1, 1))
  (pool): MaxPool2d(kernel_size=2, stride=2, padding=0, dilation=1, ceil_mode=False)
  (conv2): Conv2d(64, 64, kernel_size=(5, 5), stride=(1, 1))
  (fc1): Linear(in_features=1600, out_features=120, bias=True)
  (fc2): Linear(in_features=120, out_features=64, bias=True)
  (fc3): Linear(in_features=64, out_features=6, bias=True)
)
Round   0, Train loss: 1.601, Test loss: 1.730, Test accuracy: 33.80
Round   1, Train loss: 1.380, Test loss: 1.534, Test accuracy: 30.00
Round   2, Train loss: 1.197, Test loss: 1.345, Test accuracy: 45.83
Round   3, Train loss: 1.124, Test loss: 1.199, Test accuracy: 50.36
Round   4, Train loss: 1.109, Test loss: 1.172, Test accuracy: 48.34
Round   5, Train loss: 1.017, Test loss: 1.026, Test accuracy: 56.31
…
Final Round, Global train loss: 1.207, Global test loss: 1.323, Global test accuracy: 47.61
Average accuracy final 10 rounds: 54.47 

Average global accuracy final 10 rounds: … %%%%%%%%%%%%%%%%%%%%%%%%%%%%%%%%%%%%%%%%%%%%%%%%%%%%%%%%%%%%%%%%%%%%%%%%%%%%%%%%%% 

%%%%%%%%%%%%%%%%%%%%%%%%%%%%%%%%%%  fedavg  local_only:0   %%%%%%%%%%%%%%%%%%%%%%%%%%%%%%%%%%%%%%%%%% 

# alg: fedavg , epochs: 100, shard_per_user: 4, limit_local_output: 0, local_rep_ep: 3 , local_only: 0, is_concept_shift: 0, dataset: cifar10, level_n_system: 0.0 , level_n_lowerb:0.0  

Files already downloaded and verified
Files already downloaded and verified
fedavg
CNNCifar(
  (conv1): Conv2d(3, 64, kernel_size=(5, 5), stride=(1, 1))
  (pool): MaxPool2d(kernel_size=2, stride=2, padding=0, dilation=1, ceil_mode=False)
  (conv2): Conv2d(64, 64, kernel_size=(5, 5), stride=(1, 1))
  (fc1): Linear(in_features=1600, out_features=120, bias=True)
  (fc2): Linear(in_features=120, out_features=64, bias=True)
  (fc3): Linear(in_features=64, out_features=8, bias=True)
)
odict_keys(['conv1.weight', 'conv1.bias', 'conv2.weight', 'conv2.bias', 'fc1.weight', 'fc1.bias', 'fc2.weight', 'fc2.bias', 'fc3.weight', 'fc3.bias'])
10
[]
['conv1.weight', 'conv1.bias', 'conv2.weight', 'conv2.bias', 'fc1.weight', 'fc1.bias', 'fc2.weight', 'fc2.bias', 'fc3.weight', 'fc3.bias']
learning rate, batch size: 0.01, 10 

Round   0, Train loss: 1.449, Test loss: 1.853, Test accuracy: 23.10
…
Round  98, Train loss: 0.381, Test loss: 0.625, Test accuracy: 76.72
Round  99, Train loss: 0.354, Test loss: 0.641, Test accuracy: 76.81
Final Round, Train loss: 0.336, Test loss: 0.636, Test accuracy: 76.79
Average accuracy final 10 rounds: … %%%%%%%%%%%%%%%%%%%%%%%%%%%%%%%%%%%%%%%%%%%%%%%%%%%%%%%%%%%%%%%%%%%%%%%%%%%%%%%%%% 

%%%%%%%%%%%%%%%%%%%%%%%%%%%%%%%%%%FedPAC%%%%%%%%%%%%%%%%%%%%%%%%%%%%%%%%%%%%%%%%%% 

# alg: fedrep , epochs: 100, shard_per_user: 4, limit_local_output: 0, local_rep_ep: 3 , local_only: 0, is_concept_shift: 0, dataset: cifar10  

Files already downloaded and verified
Files already downloaded and verified
CNNCifar(
  (conv1): Conv2d(3, 64, kernel_size=(5, 5), stride=(1, 1))
  (pool): MaxPool2d(kernel_size=2, stride=2, padding=0, dilation=1, ceil_mode=False)
  (conv2): Conv2d(64, 64, kernel_size=(5, 5), stride=(1, 1))
  (fc1): Linear(in_features=1600, out_features=120, bias=True)
  (fc2): Linear(in_features=120, out_features=64, bias=True)
  (fc3): Linear(in_features=64, out_features=8, bias=True)
)
odict_keys(['conv1.weight', 'conv1.bias', 'conv2.weight', 'conv2.bias', 'fc1.weight', 'fc1.bias', 'fc2.weight', 'fc2.bias', 'fc3.weight', 'fc3.bias'])
10
['fc1.weight', 'fc1.bias', 'fc2.weight', 'fc2.bias', 'conv2.weight', 'conv2.bias', 'conv1.weight', 'conv1.bias']
['conv1.weight', 'conv1.bias', 'conv2.weight', 'conv2.bias', 'fc1.weight', 'fc1.bias', 'fc2.weight', 'fc2.bias', 'fc3.weight', 'fc3.bias']
# Params: 307712 (local), 307192 (global); Percentage 99.83 (307192/307712)
learning rate, batch size: 0.01, 10
CNNCifar(
  (conv1): Conv2d(3, 64, kernel_size=(5, 5), stride=(1, 1))
  (pool): MaxPool2d(kernel_size=2, stride=2, padding=0, dilation=1, ceil_mode=False)
  (conv2): Conv2d(64, 64, kernel_size=(5, 5), stride=(1, 1))
  (fc1): Linear(in_features=1600, out_features=120, bias=True)
  (fc2): Linear(in_features=120, out_features=64, bias=True)
  (fc3): Linear(in_features=64, out_features=8, bias=True)
)
Round   0, Train loss: 1.730, Test loss: 1.972, Test accuracy: 22.11
Round   1, Train loss: 1.314, Test loss: 1.677, Test accuracy: 34.55
Round   2, Train loss: 1.150, Test loss: 1.470, Test accuracy: 41.74
Round   3, Train loss: 1.186, Test loss: 1.229, Test accuracy: 50.35
Round   4, Train loss: 1.089, Test loss: 1.046, Test accuracy: 58.06
Round   5, Train loss: 1.030, Test loss: 1.001, Test accuracy: 60.33
…
Final Round, Global train loss: 1.355, Global test loss: 1.648, Global test accuracy: 38.30
Average accuracy final 10 rounds: 51.470000000000006 

Average global accuracy final 10 rounds: … %%%%%%%%%%%%%%%%%%%%%%%%%%%%%%%%%%%%%%%%%%%%%%%%%%%%%%%%%%%%%%%%%%%%%%%%%%%%%%%%%% 

%%%%%%%%%%%%%%%%%%%%%%%%%%%%%%%%%%  fedavg  local_only:0   %%%%%%%%%%%%%%%%%%%%%%%%%%%%%%%%%%%%%%%%%% 

# alg: fedavg , epochs: 100, shard_per_user: 4, limit_local_output: 0, local_rep_ep: 3 , local_only: 0, is_concept_shift: 0, dataset: cifar10, level_n_system: 0.0 , level_n_lowerb:0.0  

Files already downloaded and verified
Files already downloaded and verified
fedavg
CNNCifar(
  (conv1): Conv2d(3, 64, kernel_size=(5, 5), stride=(1, 1))
  (pool): MaxPool2d(kernel_size=2, stride=2, padding=0, dilation=1, ceil_mode=False)
  (conv2): Conv2d(64, 64, kernel_size=(5, 5), stride=(1, 1))
  (fc1): Linear(in_features=1600, out_features=120, bias=True)
  (fc2): Linear(in_features=120, out_features=64, bias=True)
  (fc3): Linear(in_features=64, out_features=9, bias=True)
)
odict_keys(['conv1.weight', 'conv1.bias', 'conv2.weight', 'conv2.bias', 'fc1.weight', 'fc1.bias', 'fc2.weight', 'fc2.bias', 'fc3.weight', 'fc3.bias'])
10
[]
['conv1.weight', 'conv1.bias', 'conv2.weight', 'conv2.bias', 'fc1.weight', 'fc1.bias', 'fc2.weight', 'fc2.bias', 'fc3.weight', 'fc3.bias']
learning rate, batch size: 0.01, 10 

Round   0, Train loss: 1.382, Test loss: 2.007, Test accuracy: 25.57
…
Round  98, Train loss: 0.377, Test loss: 0.609, Test accuracy: 77.38
Round  99, Train loss: 0.328, Test loss: 0.614, Test accuracy: 77.60
Final Round, Train loss: 0.313, Test loss: 0.631, Test accuracy: 77.15
Average accuracy final 10 rounds: … %%%%%%%%%%%%%%%%%%%%%%%%%%%%%%%%%%%%%%%%%%%%%%%%%%%%%%%%%%%%%%%%%%%%%%%%%%%%%%%%%% 

%%%%%%%%%%%%%%%%%%%%%%%%%%%%%%%%%%FedPAC%%%%%%%%%%%%%%%%%%%%%%%%%%%%%%%%%%%%%%%%%% 

# alg: fedrep , epochs: 100, shard_per_user: 4, limit_local_output: 0, local_rep_ep: 3 , local_only: 0, is_concept_shift: 0, dataset: cifar10  

Files already downloaded and verified
Files already downloaded and verified
CNNCifar(
  (conv1): Conv2d(3, 64, kernel_size=(5, 5), stride=(1, 1))
  (pool): MaxPool2d(kernel_size=2, stride=2, padding=0, dilation=1, ceil_mode=False)
  (conv2): Conv2d(64, 64, kernel_size=(5, 5), stride=(1, 1))
  (fc1): Linear(in_features=1600, out_features=120, bias=True)
  (fc2): Linear(in_features=120, out_features=64, bias=True)
  (fc3): Linear(in_features=64, out_features=9, bias=True)
)
odict_keys(['conv1.weight', 'conv1.bias', 'conv2.weight', 'conv2.bias', 'fc1.weight', 'fc1.bias', 'fc2.weight', 'fc2.bias', 'fc3.weight', 'fc3.bias'])
10
['fc1.weight', 'fc1.bias', 'fc2.weight', 'fc2.bias', 'conv2.weight', 'conv2.bias', 'conv1.weight', 'conv1.bias']
['conv1.weight', 'conv1.bias', 'conv2.weight', 'conv2.bias', 'fc1.weight', 'fc1.bias', 'fc2.weight', 'fc2.bias', 'fc3.weight', 'fc3.bias']
# Params: 307777 (local), 307192 (global); Percentage 99.81 (307192/307777)
learning rate, batch size: 0.01, 10
CNNCifar(
  (conv1): Conv2d(3, 64, kernel_size=(5, 5), stride=(1, 1))
  (pool): MaxPool2d(kernel_size=2, stride=2, padding=0, dilation=1, ceil_mode=False)
  (conv2): Conv2d(64, 64, kernel_size=(5, 5), stride=(1, 1))
  (fc1): Linear(in_features=1600, out_features=120, bias=True)
  (fc2): Linear(in_features=120, out_features=64, bias=True)
  (fc3): Linear(in_features=64, out_features=9, bias=True)
)
Round   0, Train loss: 1.857, Test loss: 2.168, Test accuracy: 17.36
Round   1, Train loss: 1.398, Test loss: 1.797, Test accuracy: 31.99
Round   2, Train loss: 1.233, Test loss: 1.656, Test accuracy: 33.66
Round   3, Train loss: 1.174, Test loss: 1.309, Test accuracy: 46.85
Round   4, Train loss: 1.085, Test loss: 1.280, Test accuracy: 50.26
Round   5, Train loss: 1.086, Test loss: 1.225, Test accuracy: 52.54
…
Final Round, Global train loss: 1.374, Global test loss: 1.761, Global test accuracy: 35.34
Average accuracy final 10 rounds: 49.974999999999994 

Average global accuracy final 10 rounds: … %%%%%%%%%%%%%%%%%%%%%%%%%%%%%%%%%%%%%%%%%%%%%%%%%%%%%%%%%%%%%%%%%%%%%%%%%%%%%%%%%% 

%%%%%%%%%%%%%%%%%%%%%%%%%%%%%%%%%%  fedavg  local_only:0   %%%%%%%%%%%%%%%%%%%%%%%%%%%%%%%%%%%%%%%%%% 

# alg: fedavg , epochs: 100, shard_per_user: 4, limit_local_output: 0, local_rep_ep: 3 , local_only: 0, is_concept_shift: 0, dataset: cifar10, level_n_system: 0.0 , level_n_lowerb:0.0  

Files already downloaded and verified
Files already downloaded and verified
fedavg
CNNCifar(
  (conv1): Conv2d(3, 64, kernel_size=(5, 5), stride=(1, 1))
  (pool): MaxPool2d(kernel_size=2, stride=2, padding=0, dilation=1, ceil_mode=False)
  (conv2): Conv2d(64, 64, kernel_size=(5, 5), stride=(1, 1))
  (fc1): Linear(in_features=1600, out_features=120, bias=True)
  (fc2): Linear(in_features=120, out_features=64, bias=True)
  (fc3): Linear(in_features=64, out_features=10, bias=True)
)
odict_keys(['conv1.weight', 'conv1.bias', 'conv2.weight', 'conv2.bias', 'fc1.weight', 'fc1.bias', 'fc2.weight', 'fc2.bias', 'fc3.weight', 'fc3.bias'])
10
[]
['conv1.weight', 'conv1.bias', 'conv2.weight', 'conv2.bias', 'fc1.weight', 'fc1.bias', 'fc2.weight', 'fc2.bias', 'fc3.weight', 'fc3.bias']
learning rate, batch size: 0.01, 10 

Round   0, Train loss: 1.414, Test loss: 1.994, Test accuracy: 26.10
…
Round  98, Train loss: 0.368, Test loss: 0.615, Test accuracy: 77.71
Round  99, Train loss: 0.376, Test loss: 0.625, Test accuracy: 77.91
Final Round, Train loss: 0.322, Test loss: 0.628, Test accuracy: 78.42
Average accuracy final 10 rounds: … %%%%%%%%%%%%%%%%%%%%%%%%%%%%%%%%%%%%%%%%%%%%%%%%%%%%%%%%%%%%%%%%%%%%%%%%%%%%%%%%%% 

%%%%%%%%%%%%%%%%%%%%%%%%%%%%%%%%%%FedPAC%%%%%%%%%%%%%%%%%%%%%%%%%%%%%%%%%%%%%%%%%% 

# alg: fedrep , epochs: 100, shard_per_user: 4, limit_local_output: 0, local_rep_ep: 3 , local_only: 0, is_concept_shift: 0, dataset: cifar10  

Files already downloaded and verified
Files already downloaded and verified
CNNCifar(
  (conv1): Conv2d(3, 64, kernel_size=(5, 5), stride=(1, 1))
  (pool): MaxPool2d(kernel_size=2, stride=2, padding=0, dilation=1, ceil_mode=False)
  (conv2): Conv2d(64, 64, kernel_size=(5, 5), stride=(1, 1))
  (fc1): Linear(in_features=1600, out_features=120, bias=True)
  (fc2): Linear(in_features=120, out_features=64, bias=True)
  (fc3): Linear(in_features=64, out_features=10, bias=True)
)
odict_keys(['conv1.weight', 'conv1.bias', 'conv2.weight', 'conv2.bias', 'fc1.weight', 'fc1.bias', 'fc2.weight', 'fc2.bias', 'fc3.weight', 'fc3.bias'])
10
['fc1.weight', 'fc1.bias', 'fc2.weight', 'fc2.bias', 'conv2.weight', 'conv2.bias', 'conv1.weight', 'conv1.bias']
['conv1.weight', 'conv1.bias', 'conv2.weight', 'conv2.bias', 'fc1.weight', 'fc1.bias', 'fc2.weight', 'fc2.bias', 'fc3.weight', 'fc3.bias']
# Params: 307842 (local), 307192 (global); Percentage 99.79 (307192/307842)
learning rate, batch size: 0.01, 10
CNNCifar(
  (conv1): Conv2d(3, 64, kernel_size=(5, 5), stride=(1, 1))
  (pool): MaxPool2d(kernel_size=2, stride=2, padding=0, dilation=1, ceil_mode=False)
  (conv2): Conv2d(64, 64, kernel_size=(5, 5), stride=(1, 1))
  (fc1): Linear(in_features=1600, out_features=120, bias=True)
  (fc2): Linear(in_features=120, out_features=64, bias=True)
  (fc3): Linear(in_features=64, out_features=10, bias=True)
)
Round   0, Train loss: 1.826, Test loss: 2.091, Test accuracy: 20.01
Round   1, Train loss: 1.369, Test loss: 1.952, Test accuracy: 30.04
Round   2, Train loss: 1.218, Test loss: 1.663, Test accuracy: 35.49
Round   3, Train loss: 1.172, Test loss: 1.410, Test accuracy: 45.31
Round   4, Train loss: 1.056, Test loss: 1.437, Test accuracy: 43.75
Round   5, Train loss: 1.021, Test loss: 1.213, Test accuracy: 51.45
…
