nohup: ignoring input
%%%%%%%%%%%%%%%%%%%%%%%%%%%%%%%%%%%%%%%%%%%%%%%%%%%%%%%%%%%%%%%%%%%%%%%%%%%%%%%%%% 

%%%%%%%%%%%%%%%%%%%%%%%%%%%%%%%%%%  fedavg  local_only:1   %%%%%%%%%%%%%%%%%%%%%%%%%%%%%%%%%%%%%%%%%% 

# alg: fedavg , epochs: 100, shard_per_user: 5, limit_local_output: 0, local_rep_ep: 3 , local_only: 1, is_concept_shift: 0, dataset: cifar10, level_n_system: 0.0 , level_n_lowerb:0.4  

Files already downloaded and verified
Files already downloaded and verified
fedavg
CNNCifar(
  (conv1): Conv2d(3, 64, kernel_size=(5, 5), stride=(1, 1))
  (pool): MaxPool2d(kernel_size=2, stride=2, padding=0, dilation=1, ceil_mode=False)
  (conv2): Conv2d(64, 64, kernel_size=(5, 5), stride=(1, 1))
  (fc1): Linear(in_features=1600, out_features=120, bias=True)
  (fc2): Linear(in_features=120, out_features=64, bias=True)
  (fc3): Linear(in_features=64, out_features=10, bias=True)
)
odict_keys(['conv1.weight', 'conv1.bias', 'conv2.weight', 'conv2.bias', 'fc1.weight', 'fc1.bias', 'fc2.weight', 'fc2.bias', 'fc3.weight', 'fc3.bias'])
10
[]
['conv1.weight', 'conv1.bias', 'conv2.weight', 'conv2.bias', 'fc1.weight', 'fc1.bias', 'fc2.weight', 'fc2.bias', 'fc3.weight', 'fc3.bias']
learning rate, batch size: 0.01, 10 

Round   0, Train loss: 1.615, Test loss: 1.953, Test accuracy: 26.86
…
Final Round, Global train loss: 0.286, Global test loss: 1.244, Global test accuracy: 62.50
Average accuracy final 10 rounds: 73.495 

Average global accuracy final 10 rounds: … %%%%%%%%%%%%%%%%%%%%%%%%%%%%%%%%%%%%%%%%%%%%%%%%%%%%%%%%%%%%%%%%%%%%%%%%%%%%%%%%%% 

%%%%%%%%%%%%%%%%%%%%%%%%%%%%%%%%%%FedPAC_co_teaching%%%%%%%%%%%%%%%%%%%%%%%%%%%%%%%%%%%%%%%%%% 

# alg: fedavg , epochs: 100, shard_per_user: 5, limit_local_output: 0, local_rep_ep: 3 , local_only: 0, is_concept_shift: 0, dataset: cifar10, level_n_system: 0.0 , level_n_lowerb:0.4  

Files already downloaded and verified
Files already downloaded and verified
fedavg
CNNCifar(
  (conv1): Conv2d(3, 64, kernel_size=(5, 5), stride=(1, 1))
  (pool): MaxPool2d(kernel_size=2, stride=2, padding=0, dilation=1, ceil_mode=False)
  (conv2): Conv2d(64, 64, kernel_size=(5, 5), stride=(1, 1))
  (fc1): Linear(in_features=1600, out_features=120, bias=True)
  (fc2): Linear(in_features=120, out_features=64, bias=True)
  (fc3): Linear(in_features=64, out_features=10, bias=True)
)
CNNCifar(
  (conv1): Conv2d(3, 64, kernel_size=(5, 5), stride=(1, 1))
  (pool): MaxPool2d(kernel_size=2, stride=2, padding=0, dilation=1, ceil_mode=False)
  (conv2): Conv2d(64, 64, kernel_size=(5, 5), stride=(1, 1))
  (fc1): Linear(in_features=1600, out_features=120, bias=True)
  (fc2): Linear(in_features=120, out_features=64, bias=True)
  (fc3): Linear(in_features=64, out_features=10, bias=True)
)
odict_keys(['conv1.weight', 'conv1.bias', 'conv2.weight', 'conv2.bias', 'fc1.weight', 'fc1.bias', 'fc2.weight', 'fc2.bias', 'fc3.weight', 'fc3.bias'])
10
[]
['conv1.weight', 'conv1.bias', 'conv2.weight', 'conv2.bias', 'fc1.weight', 'fc1.bias', 'fc2.weight', 'fc2.bias', 'fc3.weight', 'fc3.bias']
learning rate, batch size: 0.01, 10
CNNCifar(
  (conv1): Conv2d(3, 64, kernel_size=(5, 5), stride=(1, 1))
  (pool): MaxPool2d(kernel_size=2, stride=2, padding=0, dilation=1, ceil_mode=False)
  (conv2): Conv2d(64, 64, kernel_size=(5, 5), stride=(1, 1))
  (fc1): Linear(in_features=1600, out_features=120, bias=True)
  (fc2): Linear(in_features=120, out_features=64, bias=True)
  (fc3): Linear(in_features=64, out_features=10, bias=True)
)
Round   0, Train loss: 1.580, Test loss: 1.961, Test accuracy: 27.79
Round   0, Global train loss: 1.580, Global test loss: 2.162, Global test accuracy: 23.57
Round   1, Train loss: 1.411, Test loss: 1.731, Test accuracy: 36.53
Round   1, Global train loss: 1.411, Global test loss: 2.112, Global test accuracy: 28.64
Round   2, Train loss: 1.276, Test loss: 1.643, Test accuracy: 38.43
…
ck the release note link for additional information.
Deprecated in NumPy 1.20; for more details and guidance: https://numpy.org/devdocs/release/1.20.0-notes.html#deprecations
  from numpy import long
%%%%%%%%%%%%%%%%%%%%%%%%%%%%%%%%%%%%%%%%%%%%%%%%%%%%%%%%%%%%%%%%%%%%%%%%%%%%%%%%%% 

%%%%%%%%%%%%%%%%%%%%%%%%%%%%%%%%%%RFL%%%%%%%%%%%%%%%%%%%%%%%%%%%%%%%%%%%%%%%%%% 

# alg: RFL , epochs: 100, shard_per_user: 5, limit_local_output: 0, local_rep_ep: 3 , local_only: 0, is_concept_shift: 0, dataset: cifar10  

Files already downloaded and verified
Files already downloaded and verified
LeNet(
  (conv1): Conv2d(3, 6, kernel_size=(5, 5), stride=(1, 1))
  (conv2): Conv2d(6, 16, kernel_size=(5, 5), stride=(1, 1))
  (batch_norm): BatchNorm2d(16, eps=1e-05, momentum=0.1, affine=True, track_running_stats=True)
  (fc1): Linear(in_features=400, out_features=120, bias=True)
  (fc2): Linear(in_features=120, out_features=84, bias=True)
  (fc3): Linear(in_features=84, out_features=10, bias=True)
)
Round 0 global test acc  14.9400
Round 1 global test acc  16.6200
Round 2 global test acc  20.6300
Round 3 global test acc  25.7900
Round 4 global test acc  27.9500
Round 5 global test acc  27.1600
Round 6 global test acc  31.1000
Round 7 global test acc  34.2400
Round 8 global test acc  31.5500
Round 9 global test acc  29.2400
Round 10 global test acc  33.6400
…
Round 94 global test acc  26.6900
Round 95 global test acc  26.3000
Round 96 global test acc  25.6300
Round 97 global test acc  25.1500
Round 98 global test acc  25.0300
Round 99 global test acc  25.0200
%%%%%%%%%%%%%%%%%%%%%%%%%%%%%%%%%%%%%%%%%%%%%%%%%%%%%%%%%%%%%%%%%%%%%%%%%%%%%%%%%% 

%%%%%%%%%%%%%%%%%%%%%%%%%%%%%%%%%%FedPAC%%%%%%%%%%%%%%%%%%%%%%%%%%%%%%%%%%%%%%%%%% 

# alg: fedrep , epochs: 100, shard_per_user: 5, limit_local_output: 0, local_rep_ep: 3 , local_only: 0, is_concept_shift: 0, dataset: cifar10  

Files already downloaded and verified
Files already downloaded and verified
CNNCifar(
  (conv1): Conv2d(3, 64, kernel_size=(5, 5), stride=(1, 1))
  (pool): MaxPool2d(kernel_size=2, stride=2, padding=0, dilation=1, ceil_mode=False)
  (conv2): Conv2d(64, 64, kernel_size=(5, 5), stride=(1, 1))
  (fc1): Linear(in_features=1600, out_features=120, bias=True)
  (fc2): Linear(in_features=120, out_features=64, bias=True)
  (fc3): Linear(in_features=64, out_features=10, bias=True)
)
odict_keys(['conv1.weight', 'conv1.bias', 'conv2.weight', 'conv2.bias', 'fc1.weight', 'fc1.bias', 'fc2.weight', 'fc2.bias', 'fc3.weight', 'fc3.bias'])
10
['fc1.weight', 'fc1.bias', 'fc2.weight', 'fc2.bias', 'conv2.weight', 'conv2.bias', 'conv1.weight', 'conv1.bias']
['conv1.weight', 'conv1.bias', 'conv2.weight', 'conv2.bias', 'fc1.weight', 'fc1.bias', 'fc2.weight', 'fc2.bias', 'fc3.weight', 'fc3.bias']
# Params: 307842 (local), 307192 (global); Percentage 99.79 (307192/307842)
learning rate, batch size: 0.01, 10
CNNCifar(
  (conv1): Conv2d(3, 64, kernel_size=(5, 5), stride=(1, 1))
  (pool): MaxPool2d(kernel_size=2, stride=2, padding=0, dilation=1, ceil_mode=False)
  (conv2): Conv2d(64, 64, kernel_size=(5, 5), stride=(1, 1))
  (fc1): Linear(in_features=1600, out_features=120, bias=True)
  (fc2): Linear(in_features=120, out_features=64, bias=True)
  (fc3): Linear(in_features=64, out_features=10, bias=True)
)
Round   0, Train loss: 1.944, Test loss: 2.072, Test accuracy: 28.48
Round   1, Train loss: 1.522, Test loss: 1.867, Test accuracy: 34.24
Round   2, Train loss: 1.412, Test loss: 1.660, Test accuracy: 37.96
Round   3, Train loss: 1.306, Test loss: 1.574, Test accuracy: 42.62
Round   4, Train loss: 1.234, Test loss: 1.436, Test accuracy: 46.45
Round   5, Train loss: 1.193, Test loss: 1.288, Test accuracy: 49.79
…
