nohup: ignoring input
%%%%%%%%%%%%%%%%%%%%%%%%%%%%%%%%%%%%%%%%%%%%%%%%%%%%%%%%%%%%%%%%%%%%%%%%%%%%%%%%%% 

%%%%%%%%%%%%%%%%%%%%%%%%%%%%%%%%%%  fedavg  local_only:1   %%%%%%%%%%%%%%%%%%%%%%%%%%%%%%%%%%%%%%%%%% 

# alg: fedavg , epochs: 100, shard_per_user: 10, limit_local_output: 0, local_rep_ep: 3 , local_only: 1, is_concept_shift: 0, dataset: cifar100, level_n_system: 0.0 , level_n_lowerb:0.0  

Files already downloaded and verified
Files already downloaded and verified
fedavg
CNNCifar100(
  (conv1): Conv2d(3, 64, kernel_size=(5, 5), stride=(1, 1))
  (pool): MaxPool2d(kernel_size=2, stride=2, padding=0, dilation=1, ceil_mode=False)
  (drop): Dropout(p=0.6, inplace=False)
  (conv2): Conv2d(64, 128, kernel_size=(5, 5), stride=(1, 1))
  (fc1): Linear(in_features=3200, out_features=256, bias=True)
  (fc2): Linear(in_features=256, out_features=128, bias=True)
  (fc3): Linear(in_features=128, out_features=10, bias=True)
)
odict_keys(['conv1.weight', 'conv1.bias', 'conv2.weight', 'conv2.bias', 'fc1.weight', 'fc1.bias', 'fc2.weight', 'fc2.bias', 'fc3.weight', 'fc3.bias'])
10
[]
['conv1.weight', 'conv1.bias', 'conv2.weight', 'conv2.bias', 'fc1.weight', 'fc1.bias', 'fc2.weight', 'fc2.bias', 'fc3.weight', 'fc3.bias']
learning rate, batch size: 0.01, 10 

Round   0, Train loss: 2.130, Test loss: 1.833, Test accuracy: 38.87
…
Final Round, Train loss: 1.809, Test loss: 1.618, Test accuracy: 43.92
Final Round, Global train loss: 1.809, Global test loss: 1.612, Global test accuracy: 44.50
Average accuracy final 10 rounds: 43.923 

Average global accuracy final 10 rounds: … %%%%%%%%%%%%%%%%%%%%%%%%%%%%%%%%%%%%%%%%%%%%%%%%%%%%%%%%%%%%%%%%%%%%%%%%%%%%%%%%%% 

%%%%%%%%%%%%%%%%%%%%%%%%%%%%%%%%%%FedPAC%%%%%%%%%%%%%%%%%%%%%%%%%%%%%%%%%%%%%%%%%% 

# alg: fedrep , epochs: 100, shard_per_user: 10, limit_local_output: 0, local_rep_ep: 3 , local_only: 0, is_concept_shift: 0, dataset: cifar100  

Files already downloaded and verified
Files already downloaded and verified
CNNCifar100(
  (conv1): Conv2d(3, 64, kernel_size=(5, 5), stride=(1, 1))
  (pool): MaxPool2d(kernel_size=2, stride=2, padding=0, dilation=1, ceil_mode=False)
  (drop): Dropout(p=0.6, inplace=False)
  (conv2): Conv2d(64, 128, kernel_size=(5, 5), stride=(1, 1))
  (fc1): Linear(in_features=3200, out_features=256, bias=True)
  (fc2): Linear(in_features=256, out_features=128, bias=True)
  (fc3): Linear(in_features=128, out_features=10, bias=True)
)
odict_keys(['conv1.weight', 'conv1.bias', 'conv2.weight', 'conv2.bias', 'fc1.weight', 'fc1.bias', 'fc2.weight', 'fc2.bias', 'fc3.weight', 'fc3.bias'])
10
['fc1.weight', 'fc1.bias', 'fc2.weight', 'fc2.bias', 'conv2.weight', 'conv2.bias', 'conv1.weight', 'conv1.bias']
['conv1.weight', 'conv1.bias', 'conv2.weight', 'conv2.bias', 'fc1.weight', 'fc1.bias', 'fc2.weight', 'fc2.bias', 'fc3.weight', 'fc3.bias']
# Params: 1063434 (local), 1062144 (global); Percentage 99.88 (1062144/1063434)
learning rate, batch size: 0.01, 10
CNNCifar100(
  (conv1): Conv2d(3, 64, kernel_size=(5, 5), stride=(1, 1))
  (pool): MaxPool2d(kernel_size=2, stride=2, padding=0, dilation=1, ceil_mode=False)
  (drop): Dropout(p=0.6, inplace=False)
  (conv2): Conv2d(64, 128, kernel_size=(5, 5), stride=(1, 1))
  (fc1): Linear(in_features=3200, out_features=256, bias=True)
  (fc2): Linear(in_features=256, out_features=128, bias=True)
  (fc3): Linear(in_features=128, out_features=10, bias=True)
)
Round   0, Train loss: 2.274, Test loss: 2.037, Test accuracy: 33.16
Round   1, Train loss: 2.011, Test loss: 1.767, Test accuracy: 40.97
Round   2, Train loss: 1.841, Test loss: 1.598, Test accuracy: 45.97
Round   3, Train loss: 1.721, Test loss: 1.502, Test accuracy: 49.46
Round   4, Train loss: 1.621, Test loss: 1.453, Test accuracy: 52.16
Round   5, Train loss: 1.543, Test loss: 1.371, Test accuracy: 55.88
…
