…
Average accuracy final 10 rounds: … /data/jij/csm/code/FL_HLS/utils/sampling.py:91: UserWarning: To copy construct from a tensor, it is recommended to use sourceTensor.clone().detach() or sourceTensor.clone().detach().requires_grad_(True), rather than torch.tensor(sourceTensor).
  label = torch.tensor(dataset.targets[i]).item()
%%%%%%%%%%%%%%%%%%%%%%%%%%%%%%%%%%%%%%%%%%%%%%%%%%%%%%%%%%%%%%%%%%%%%%%%%%%%%%%%%% 

%%%%%%%%%%%%%%%%%%%%%%%%%%%%%%%%%%FedPAC%%%%%%%%%%%%%%%%%%%%%%%%%%%%%%%%%%%%%%%%%% 

# alg: fedrep , epochs: 100, shard_per_user: 3, limit_local_output: 0, local_rep_ep: 3 , local_only: 0, is_concept_shift: 0, dataset: mnist  

fedrep
MLP(
  (layer_input): Linear(in_features=784, out_features=512, bias=True)
  (relu): ReLU()
  (dropout): Dropout(p=0, inplace=False)
  (layer_hidden1): Linear(in_features=512, out_features=256, bias=True)
  (layer_hidden2): Linear(in_features=256, out_features=64, bias=True)
  (layer_out): Linear(in_features=64, out_features=10, bias=True)
  (softmax): Softmax(dim=1)
)
odict_keys(['layer_input.weight', 'layer_input.bias', 'layer_hidden1.weight', 'layer_hidden1.bias', 'layer_hidden2.weight', 'layer_hidden2.bias', 'layer_out.weight', 'layer_out.bias'])
8
['layer_input.weight', 'layer_input.bias', 'layer_hidden1.weight', 'layer_hidden1.bias', 'layer_hidden2.weight', 'layer_hidden2.bias']
['layer_input.weight', 'layer_input.bias', 'layer_hidden1.weight', 'layer_hidden1.bias', 'layer_hidden2.weight', 'layer_hidden2.bias', 'layer_out.weight', 'layer_out.bias']
# Params: 550346 (local), 549696 (global); Percentage 99.88 (549696/550346)
learning rate, batch size: 0.01, 10
MLP(
  (layer_input): Linear(in_features=784, out_features=512, bias=True)
  (relu): ReLU()
  (dropout): Dropout(p=0, inplace=False)
  (layer_hidden1): Linear(in_features=512, out_features=256, bias=True)
  (layer_hidden2): Linear(in_features=256, out_features=64, bias=True)
  (layer_out): Linear(in_features=64, out_features=10, bias=True)
  (softmax): Softmax(dim=1)
)
Round   0, Train loss: 2.317, Test loss: 2.300, Test accuracy: 19.63
Round   1, Train loss: 2.294, Test loss: 2.294, Test accuracy: 25.98
Round   2, Train loss: 2.267, Test loss: 2.278, Test accuracy: 25.47
Round   3, Train loss: 2.201, Test loss: 2.230, Test accuracy: 29.60
Round   4, Train loss: 2.113, Test loss: 2.169, Test accuracy: 33.65
…
Final Round, Global train loss: 2.280, Global test loss: 2.282, Global test accuracy: 33.33 

Average accuracy final 10 rounds: 33.33333333333333 

Average global accuracy final 10 rounds: … %%%%%%%%%%%%%%%%%%%%%%%%%%%%%%%%%%%%%%%%%%%%%%%%%%%%%%%%%%%%%%%%%%%%%%%%%%%%%%%%%% 

%%%%%%%%%%%%%%%%%%%%%%%%%%%%%%%%%%  fedavg  local_only:1   %%%%%%%%%%%%%%%%%%%%%%%%%%%%%%%%%%%%%%%%%% 

# alg: fedavg , epochs: 100, shard_per_user: 3, limit_local_output: 0, local_rep_ep: 3 , local_only: 1, is_concept_shift: 0, dataset: cifar10, level_n_system: 0.0 , level_n_lowerb:0.2  

Files already downloaded and verified
Files already downloaded and verified
fedavg
CNNCifar(
  (conv1): Conv2d(3, 64, kernel_size=(5, 5), stride=(1, 1))
  (pool): MaxPool2d(kernel_size=2, stride=2, padding=0, dilation=1, ceil_mode=False)
  (conv2): Conv2d(64, 64, kernel_size=(5, 5), stride=(1, 1))
  (fc1): Linear(in_features=1600, out_features=120, bias=True)
  (fc2): Linear(in_features=120, out_features=64, bias=True)
  (fc3): Linear(in_features=64, out_features=10, bias=True)
)
odict_keys(['conv1.weight', 'conv1.bias', 'conv2.weight', 'conv2.bias', 'fc1.weight', 'fc1.bias', 'fc2.weight', 'fc2.bias', 'fc3.weight', 'fc3.bias'])
10
[]
['conv1.weight', 'conv1.bias', 'conv2.weight', 'conv2.bias', 'fc1.weight', 'fc1.bias', 'fc2.weight', 'fc2.bias', 'fc3.weight', 'fc3.bias']
learning rate, batch size: 0.01, 10 

Round   0, Train loss: 1.235, Test loss: 1.929, Test accuracy: 22.17 
…
Round  98, Train loss: 0.058, Test loss: 1.243, Test accuracy: 75.62 

Round  99, Train loss: 0.073, Test loss: 1.258, Test accuracy: 75.38 

Final Round, Train loss: 0.051, Test loss: 1.373, Test accuracy: 75.23 

Average accuracy final 10 rounds: … %%%%%%%%%%%%%%%%%%%%%%%%%%%%%%%%%%%%%%%%%%%%%%%%%%%%%%%%%%%%%%%%%%%%%%%%%%%%%%%%%% 

%%%%%%%%%%%%%%%%%%%%%%%%%%%%%%%%%%FedPAC%%%%%%%%%%%%%%%%%%%%%%%%%%%%%%%%%%%%%%%%%% 

# alg: fedrep , epochs: 100, shard_per_user: 3, limit_local_output: 0, local_rep_ep: 3 , local_only: 0, is_concept_shift: 0, dataset: cifar10  

Files already downloaded and verified
Files already downloaded and verified
fedrep
CNNCifar(
  (conv1): Conv2d(3, 64, kernel_size=(5, 5), stride=(1, 1))
  (pool): MaxPool2d(kernel_size=2, stride=2, padding=0, dilation=1, ceil_mode=False)
  (conv2): Conv2d(64, 64, kernel_size=(5, 5), stride=(1, 1))
  (fc1): Linear(in_features=1600, out_features=120, bias=True)
  (fc2): Linear(in_features=120, out_features=64, bias=True)
  (fc3): Linear(in_features=64, out_features=10, bias=True)
)
odict_keys(['conv1.weight', 'conv1.bias', 'conv2.weight', 'conv2.bias', 'fc1.weight', 'fc1.bias', 'fc2.weight', 'fc2.bias', 'fc3.weight', 'fc3.bias'])
10
['fc1.weight', 'fc1.bias', 'fc2.weight', 'fc2.bias', 'conv2.weight', 'conv2.bias', 'conv1.weight', 'conv1.bias']
['conv1.weight', 'conv1.bias', 'conv2.weight', 'conv2.bias', 'fc1.weight', 'fc1.bias', 'fc2.weight', 'fc2.bias', 'fc3.weight', 'fc3.bias']
# Params: 307842 (local), 307192 (global); Percentage 99.79 (307192/307842)
learning rate, batch size: 0.01, 10
CNNCifar(
  (conv1): Conv2d(3, 64, kernel_size=(5, 5), stride=(1, 1))
  (pool): MaxPool2d(kernel_size=2, stride=2, padding=0, dilation=1, ceil_mode=False)
  (conv2): Conv2d(64, 64, kernel_size=(5, 5), stride=(1, 1))
  (fc1): Linear(in_features=1600, out_features=120, bias=True)
  (fc2): Linear(in_features=120, out_features=64, bias=True)
  (fc3): Linear(in_features=64, out_features=10, bias=True)
)
Round   0, Train loss: 1.710, Test loss: 2.249, Test accuracy: 17.10
Round   1, Train loss: 1.163, Test loss: 1.897, Test accuracy: 27.37
Round   2, Train loss: 1.088, Test loss: 1.643, Test accuracy: 32.52
Round   3, Train loss: 0.986, Test loss: 1.484, Test accuracy: 43.30
Round   4, Train loss: 0.979, Test loss: 1.257, Test accuracy: 49.13
Round   5, Train loss: 0.889, Test loss: 1.030, Test accuracy: 56.57
…
Final Round, Global train loss: nan, Global test loss: nan, Global test accuracy: 6.67 

Average accuracy final 10 rounds: 6.666666666666669 

Average global accuracy final 10 rounds: … %%%%%%%%%%%%%%%%%%%%%%%%%%%%%%%%%%%%%%%%%%%%%%%%%%%%%%%%%%%%%%%%%%%%%%%%%%%%%%%%%% 

%%%%%%%%%%%%%%%%%%%%%%%%%%%%%%%%%%  fedavg  local_only:1   %%%%%%%%%%%%%%%%%%%%%%%%%%%%%%%%%%%%%%%%%% 

# alg: fedavg , epochs: 100, shard_per_user: 3, limit_local_output: 1, local_rep_ep: 3 , local_only: 1, is_concept_shift: 1, dataset: cifar10, level_n_system: 0.0 , level_n_lowerb:0.2  

Files already downloaded and verified
Files already downloaded and verified
fedavg
CNNCifar(
  (conv1): Conv2d(3, 64, kernel_size=(5, 5), stride=(1, 1))
  (pool): MaxPool2d(kernel_size=2, stride=2, padding=0, dilation=1, ceil_mode=False)
  (conv2): Conv2d(64, 64, kernel_size=(5, 5), stride=(1, 1))
  (fc1): Linear(in_features=1600, out_features=120, bias=True)
  (fc2): Linear(in_features=120, out_features=64, bias=True)
  (fc3): Linear(in_features=64, out_features=3, bias=True)
)
odict_keys(['conv1.weight', 'conv1.bias', 'conv2.weight', 'conv2.bias', 'fc1.weight', 'fc1.bias', 'fc2.weight', 'fc2.bias', 'fc3.weight', 'fc3.bias'])
10
[]
['conv1.weight', 'conv1.bias', 'conv2.weight', 'conv2.bias', 'fc1.weight', 'fc1.bias', 'fc2.weight', 'fc2.bias', 'fc3.weight', 'fc3.bias']
learning rate, batch size: 0.01, 10 

Round   0, Train loss: 0.993, Test loss: 1.041, Test accuracy: 39.73 
…
Round  99, Train loss: 0.025, Test loss: 1.188, Test accuracy: 78.13 

Final Round, Train loss: 0.044, Test loss: 1.264, Test accuracy: 78.23 

Average accuracy final 10 rounds: … %%%%%%%%%%%%%%%%%%%%%%%%%%%%%%%%%%%%%%%%%%%%%%%%%%%%%%%%%%%%%%%%%%%%%%%%%%%%%%%%%%%%%%%%%% 

%%%%%%%%%%%%%%%%%%%%%%%%%%%%%%%%%%FedPAC-K-Means%%%%%%%%%%%%%%%%%%%%%%%%%%%%%%%%%%%%%%%%%% 

# alg: fedrep , epochs: 100, shard_per_user: 3, limit_local_output: 1, local_rep_ep: 3 , local_only: 0, is_concept_shift: 1, dataset: cifar10  

Files already downloaded and verified
Files already downloaded and verified
fedrep
CNNCifar(
  (conv1): Conv2d(3, 64, kernel_size=(5, 5), stride=(1, 1))
  (pool): MaxPool2d(kernel_size=2, stride=2, padding=0, dilation=1, ceil_mode=False)
  (conv2): Conv2d(64, 64, kernel_size=(5, 5), stride=(1, 1))
  (fc1): Linear(in_features=1600, out_features=120, bias=True)
  (fc2): Linear(in_features=120, out_features=64, bias=True)
  (fc3): Linear(in_features=64, out_features=3, bias=True)
)
odict_keys(['conv1.weight', 'conv1.bias', 'conv2.weight', 'conv2.bias', 'fc1.weight', 'fc1.bias', 'fc2.weight', 'fc2.bias', 'fc3.weight', 'fc3.bias'])
10
['fc1.weight', 'fc1.bias', 'fc2.weight', 'fc2.bias', 'conv2.weight', 'conv2.bias', 'conv1.weight', 'conv1.bias']
['conv1.weight', 'conv1.bias', 'conv2.weight', 'conv2.bias', 'fc1.weight', 'fc1.bias', 'fc2.weight', 'fc2.bias', 'fc3.weight', 'fc3.bias']
4800
4864
107264
107328
299328
299448
307128
307192
307384
307387
# Params: 307387 (local), 307192 (global); Percentage 99.94 (307192/307387)
learning rate, batch size: 0.01, 10
CNNCifar(
  (conv1): Conv2d(3, 64, kernel_size=(5, 5), stride=(1, 1))
  (pool): MaxPool2d(kernel_size=2, stride=2, padding=0, dilation=1, ceil_mode=False)
  (conv2): Conv2d(64, 64, kernel_size=(5, 5), stride=(1, 1))
  (fc1): Linear(in_features=1600, out_features=120, bias=True)
  (fc2): Linear(in_features=120, out_features=64, bias=True)
  (fc3): Linear(in_features=64, out_features=3, bias=True)
)
Round   0, Train loss: 1.100, Test loss: 1.098, Test accuracy: 34.55
Round   1, Train loss: 1.054, Test loss: 1.113, Test accuracy: 33.17
Round   2, Train loss: 1.012, Test loss: 1.102, Test accuracy: 35.85
Round   3, Train loss: 0.954, Test loss: 1.158, Test accuracy: 35.20
Round   4, Train loss: 0.928, Test loss: 1.036, Test accuracy: 42.78
Round   5, Train loss: 0.906, Test loss: 0.972, Test accuracy: 48.33
…
%%%%%%%%%%%%%%%%%%%%%%%%%%%%%%%%%%%%%%%%%%%%%%%%%%%%%%%%%%%%%%%%%%%%%%%%%%%%%%%%%% 

%%%%%%%%%%%%%%%%%%%%%%%%%%%%%%%%%%  fedavg  local_only:1   %%%%%%%%%%%%%%%%%%%%%%%%%%%%%%%%%%%%%%%%%% 

# alg: fedavg , epochs: 100, shard_per_user: 3, limit_local_output: 0, local_rep_ep: 3 , local_only: 1, is_concept_shift: 0, dataset: cifar100, level_n_system: 0.0 , level_n_lowerb:0.2  

Downloading https://www.cs.toronto.edu/~kriz/cifar-100-python.tar.gz to data/cifar100/cifar-100-python.tar.gz
Extracting data/cifar100/cifar-100-python.tar.gz to data/cifar100
Files already downloaded and verified
fedavg
CNNCifar100(
  (conv1): Conv2d(3, 64, kernel_size=(5, 5), stride=(1, 1))
  (pool): MaxPool2d(kernel_size=2, stride=2, padding=0, dilation=1, ceil_mode=False)
  (drop): Dropout(p=0.6, inplace=False)
  (conv2): Conv2d(64, 128, kernel_size=(5, 5), stride=(1, 1))
  (fc1): Linear(in_features=3200, out_features=256, bias=True)
  (fc2): Linear(in_features=256, out_features=128, bias=True)
  (fc3): Linear(in_features=128, out_features=10, bias=True)
)
odict_keys(['conv1.weight', 'conv1.bias', 'conv2.weight', 'conv2.bias', 'fc1.weight', 'fc1.bias', 'fc2.weight', 'fc2.bias', 'fc3.weight', 'fc3.bias'])
10
[]
['conv1.weight', 'conv1.bias', 'conv2.weight', 'conv2.bias', 'fc1.weight', 'fc1.bias', 'fc2.weight', 'fc2.bias', 'fc3.weight', 'fc3.bias']
learning rate, batch size: 0.01, 10 

Round   0, Train loss: 1.246, Test loss: 1.898, Test accuracy: 31.90 
…
Round  99, Train loss: 0.056, Test loss: 0.937, Test accuracy: 83.48 

Final Round, Train loss: 0.058, Test loss: 0.959, Test accuracy: 83.58 

Average accuracy final 10 rounds: … %%%%%%%%%%%%%%%%%%%%%%%%%%%%%%%%%%%%%%%%%%%%%%%%%%%%%%%%%%%%%%%%%%%%%%%%%%%%%%%%%% 

%%%%%%%%%%%%%%%%%%%%%%%%%%%%%%%%%%FedPAC%%%%%%%%%%%%%%%%%%%%%%%%%%%%%%%%%%%%%%%%%% 

# alg: fedrep , epochs: 100, shard_per_user: 3, limit_local_output: 0, local_rep_ep: 3 , local_only: 0, is_concept_shift: 0, dataset: cifar100  

Files already downloaded and verified
Files already downloaded and verified
fedrep
CNNCifar100(
  (conv1): Conv2d(3, 64, kernel_size=(5, 5), stride=(1, 1))
  (pool): MaxPool2d(kernel_size=2, stride=2, padding=0, dilation=1, ceil_mode=False)
  (drop): Dropout(p=0.6, inplace=False)
  (conv2): Conv2d(64, 128, kernel_size=(5, 5), stride=(1, 1))
  (fc1): Linear(in_features=3200, out_features=256, bias=True)
  (fc2): Linear(in_features=256, out_features=128, bias=True)
  (fc3): Linear(in_features=128, out_features=10, bias=True)
)
odict_keys(['conv1.weight', 'conv1.bias', 'conv2.weight', 'conv2.bias', 'fc1.weight', 'fc1.bias', 'fc2.weight', 'fc2.bias', 'fc3.weight', 'fc3.bias'])
10
['fc1.weight', 'fc1.bias', 'fc2.weight', 'fc2.bias', 'conv2.weight', 'conv2.bias', 'conv1.weight', 'conv1.bias']
['conv1.weight', 'conv1.bias', 'conv2.weight', 'conv2.bias', 'fc1.weight', 'fc1.bias', 'fc2.weight', 'fc2.bias', 'fc3.weight', 'fc3.bias']
# Params: 1063434 (local), 1062144 (global); Percentage 99.88 (1062144/1063434)
learning rate, batch size: 0.01, 10
CNNCifar100(
  (conv1): Conv2d(3, 64, kernel_size=(5, 5), stride=(1, 1))
  (pool): MaxPool2d(kernel_size=2, stride=2, padding=0, dilation=1, ceil_mode=False)
  (drop): Dropout(p=0.6, inplace=False)
  (conv2): Conv2d(64, 128, kernel_size=(5, 5), stride=(1, 1))
  (fc1): Linear(in_features=3200, out_features=256, bias=True)
  (fc2): Linear(in_features=256, out_features=128, bias=True)
  (fc3): Linear(in_features=128, out_features=10, bias=True)
)
Round   0, Train loss: 1.731, Test loss: 2.110, Test accuracy: 31.92
Round   1, Train loss: 1.146, Test loss: 1.725, Test accuracy: 45.30
Round   2, Train loss: 1.001, Test loss: 1.530, Test accuracy: 41.33
Round   3, Train loss: 0.962, Test loss: 1.164, Test accuracy: 53.23
Round   4, Train loss: 0.898, Test loss: 1.075, Test accuracy: 58.65
Round   5, Train loss: 0.834, Test loss: 0.995, Test accuracy: 61.73
…
